models/vae_banking77.pth (torch, 775269 bytes, 10 tensors)

mean.weight f4 [77, 192]
-0.03512617 0.023959875 0.0041974923 -0.0024632588 0.031974148 -0.0020444856 0.0063050915 -0.01697605
-0.021126077 -0.015803427 0.06322442 -0.06719328 0.06443438 -0.04015713 -0.046742804 -0.035968013
0.019848347 0.034913827 0.02580121 -0.014484536 0.0154507775 0.056443375 0.051407054 0.02733178
0.054906733 0.050369006 -0.037279252 0.06506325 -0.015597816 0.054629426 -0.029751081 0.055343393
0.04497398 0.044158313 0.04926755 -0.07745427 0.04891539 0.047485534 -0.016292071 0.048154376
0.050756622 -0.022513108 -0.028971557 -0.07274321 -0.017084006 -0.05534357 -0.012377383 -0.02802007
0.01069033 -0.07238298 0.05745165 -0.021832904 0.0128720775 0.027427133 0.0077217435 -0.009532206
-0.0123086395 0.035806425 -0.043972667 0.079181835 -0.01104721 -0.015124007 0.040707145 0.04550285
-0.04199442 0.04501016 0.03392119 -0.05189612 -0.064874366 0.00012214389 -0.05744178 -0.052587725
0.033233836 -0.059823673 0.009968327 -0.0042930637 -0.07054642 -0.012566313 -0.06958306 0.024073124
-0.01812196 -0.044446036 0.025015969 -0.07846623 0.043130778 0.036212157 0.06242392 0.06319073
0.03242511 -0.05462836 0.022686468 -0.011431294 0.012574783 -0.007653936 -0.018010922 0.024667371
-0.012575449 0.040684126 0.04002039 -0.03758496 -0.013065528 0.032181658 0.003982865 0.033938114
-0.06507128 0.015067849 0.024938155 0.005329153 0.081347 0.050558284 0.044361833 0.047601223
-0.074175775 -0.04920293 -0.040941637 0.05870583 0.019692682 0.038932085 -0.05304756 -0.035079673
-0.02034867 0.003024028 0.024712328 -0.051266514 -0.005080302 -0.07073244 0.06625282 0.004473611
-0.044976912 -0.06692277 0.04818153 0.0028431271 0.034214277 -0.04353209 0.011593254 -0.04025982
-0.038736485 0.05742313 -0.068167664 -0.052357297 -0.006125132 -0.055850904 -0.019347489 0.059903435
-0.0011722723 0.0020758242 -0.07468455 0.028453168 -0.005903823 0.02936246 0.043708894 -0.026171668
-0.013513144 -0.0526367 -0.05534004 -0.014467808 0.044646885 0.05739177 -0.060218304 0.014547028
-0.06369845 -0.05703176 0.019946693 -0.059952304 0.040306646 0.045234665 -0.03920096 -0.012334004
0.037384987 0.0020441469 0.05103366 0.05404058 0.020675711 -0.064637855 -0.006180308 -0.009878566
0.05892983 -0.06326266 -0.044750795 -0.06891654 -0.043116253 -0.019440783 -0.04642499 -0.044881165
-0.05022293 0.03835854 -0.05228461 0.0362311 0.025511298 0.06010504 -0.057170045 0.04456166
-0.0143541135 0.07986575 0.065979645 -0.043182842 0.030765306 0.05188412 -0.002029685 -0.055323046
0.04187481 -0.009377487 -0.014274891 0.059327487 -0.05891072 -0.04636063 0.047028895 0.024908086
-0.027849238 0.03313609 0.04302373 -0.03708278 0.023072096 -0.028509708 0.06828991 -0.0355386
-0.022624921 0.026497649 -0.0105241975 0.022865096 0.057165507 -0.030858632 -0.0271789 0.050704066
0.016411828 0.017717164 -0.010626873 -0.059060965 -0.021782337 0.053861585 -0.019159047 0.026119253
0.042953134 0.029418483 -0.046646837 -0.0069920123 -0.009139715 0.080085635 -0.01240514 -0.0061318353
0.05298343 -0.051625483 0.078711174 -0.060192008 -0.027482867 -0.005020061 0.058651034 -0.029937543
-0.03839987 -0.024352625 0.03927616 -0.032468323 -0.02226507 -0.020231266 0.013656998 -0.0005037673
00000000: 75e0 0fbd 8047 c43c 1e8b 893b a06e 21bb
00000010: 53f7 023d c7fc 05bb f19a ce3b 5b11 8bbc
00000020: 9810 adbc 3076 81bc ce7b 813d a19c 89bd
00000030: 2cf6 833d ce7b 24bd 6275 3fbd 3253 13bd
00000040: 0099 a23c cd01 0f3d 0f5d d33c 8c50 6dbc
00000050: 4225 7d3c 2b31 673d 3490 523d e6e6 df3c
00000060: e2e5 603d bb4f 4e3d 21b2 18bd e23f 853d
00000070: fb8d 7fbc 1bc3 5f3d 8ab8 f3bc c1af 623d
00000080: a336 383d 59df 343d c5cc 493d 58a0 9ebd
00000090: 815b 483d 3180 423d f376 85bc 863d 453d
000000a0: 2de6 4f3d 696d b8bc c255 edbc 64fa 94bd
000000b0: c2f3 8bbc f0af 62bd 82ca 4abc 598a e5bc
000000c0: 7e26 2f3c 873d 94bd 6c52 6b3d ebda b2bc
000000d0: 68e5 523c deae e03c ae06 fd3b f82c 1cbc
000000e0: 2daa 49bc c2a9 123d af1c 34bd 162a a23d
000000f0: 5bff 34bc afca 77bc 89bc 263d 3261 3a3d
00000100: 5702 2cbd 935c 383d f2f0 0a3d 0791 54bd
00000110: dadc 84bd c013 0039 1248 6bbd 3a66 57bd
00000120: 3420 083d ab09 75bd 3252 233c d4ac 8cbb
00000130: a47a 90bd f0e2 4dbc 9081 8ebd 0035 c53c
00000140: 8174 94bc 0c0d 36bd 4aee cc3c e7b2 a0bd
00000150: e6a9 303d 3353 143d 39b0 7f3d 246a 813d
00000160: 31d0 043d fdc1 5fbd f9d8 b93c 524a 3bbc
00000170: 7606 4e3c decd fabb a48b 93bc 3a13 ca3c
00000180: 4209 4ebc 66a4 263d 6cec 233d b0f2 19bd
00000190: cc10 56bc ead0 033d b182 823b b102 0b3d
000001a0: 1744 85bd 24df 763c 1a4b cc3c 2da0 ae3b
000001b0: 4299 a63d 3416 4f3d c1b4 353d 80f9 423d
000001c0: 78e9 97bd 0389 49bd 6bb2 27bd 8675 703d
000001d0: 8c52 a13c 4077 1f3d 6648 59bd b4af 0fbd
000001e0: 41b2 a6bc c52e 463b 8271 ca3c d6fc 51bd
000001f0: a978 a6bb 2bdc 90bd 8faf 873d 5e97 923b
00000200: b639 38bd ce0e 89bd ff59 453d c253 3a3b
00000210: 4524 0c3d b44e 32bd a2f1 3d3c 7be7 24bd
00000220: 26aa 1ebd 8434 6b3d 7d9b 8bbd 9b74 56bd
00000230: 55b5 c8bb ebc3 64bd a07e 9ebc 4e5d 753d
00000240: eea6 99ba 8d0a 083b 37f4 98bd 9e16 e93c
00000250: db74 c1bb 8b89 f03c 1908 333d f765 d6bc
00000260: 3c66 5dbc 9599 57bd 3dac 62bd 630a 6dbc
00000270: a7df 363d a213 6b3d 78a7 76bd a856 6e3c
00000280: 5574 82bd 239a 69bd 3f67 a33c 8c90 75bd
00000290: 9518 253d fc47 393d 3091 20bd 9014 4abc
000002a0: 0021 193d 18f7 053b ac08 513d a859 5d3d
000002b0: 1c60 a93c da60 84bd 2e84 cabb b5d9 21bc
000002c0: 6860 713d da8f 81bd 9c4c 37bd 1d24 8dbd
000002d0: ab9a 30bd 4742 9fbc 2128 3ebd 50d5 37bd
000002e0: 8fb6 4dbd d81d 1d3d 6328 56bd 1067 143d
000002f0: 12fd d03c b430 763d 232b 6abd 4a86 363d
00000300: 842d 6bbc a890 a33d 5620 873d 7ee0 30bd
00000310: 8607 fc3c 7184 543d 7704 05bb 6b9a 62bd
00000320: ec84 2b3d 08a4 19bc 3be1 69bc 6101 733d
00000330: 5e4c 71bd a5e4 3dbd 5fa1 403d 0b0c cc3c
00000340: 1624 e4bc b5b9 073d a739 303d 1de4 17bd
00000350: b101 bd3c 318d e9bc 95db 8b3d ec90 11bd
00000360: e657 b9bc 9911 d93c af6d 2cbc 954f bb3c
00000370: 6126 6a3d 3ecb fcbc 49a6 debc 11af 4f3d
00000380: 1972 863c 9623 913c 561c 2ebc e9e9 71bd
00000390: df70 b2bc f79d 5c3d 6ff3 9cbc 0bf8 d53c
000003a0: a0ef 2f3d 08ff f03c c110 3fbd 401d e5bb
000003b0: bebe 15bc f003 a43d ee3e 4bbc 90ed c8bb
000003c0: 2705 593d 3e75 53bd 5333 a13d e58b 76bd
000003d0: c023 e1bc 537f a4bb 113c 703d 943f f5bc
000003e0: 2f49 1dbd 287f c7bc 0ae0 203d 81fd 04bd
000003f0: 3c65 b6bc 0abc a5bc 9ac1 5f3c 400f 04ba

mean.bias f4 [77]
-0.026256941 -0.023624074 -0.00804337 0.0035629643 0.033798784 -0.007592962 -0.007891737 0.04478749
-0.048420142 -0.019217335 -0.022327619 -0.009133586 -0.0042148344 -0.01757796 0.033472076 0.027096016
-0.012423167 -0.032446943 -0.010236996 0.035772312 0.031595137 -0.01741386 0.032911614 0.014428308
0.037043788 0.008992598 -0.028561005 -0.02877079 -0.024062244 0.030365184 -0.016414743 -0.017565368
-0.022246089 0.0569782 -0.027154898 -0.00659467 0.021720385 0.0073271617 -0.047177136 0.013183774
0.03434859 0.0011905788 -0.021757849 0.050011173 0.04077519 -0.013916435 -0.0046898383 0.032883264
-0.009075159 -0.025018692 0.029667612 0.006921167 0.030236762 0.03499657 -0.0108168945 -0.035104048
0.026573174 -0.030426724 0.03634867 -0.025204731 0.035221808 -0.008012528 -0.037377384 -0.02005454
0.037873857 -0.025982669 -0.045324996 -0.040296208 -0.01785625 -0.02140904 -0.037126966 0.04377588
0.033409286 -0.010552742 0.014563279 -0.0058713066 -0.029665671
00000000: cc18 d7bc 4687 c1bc 57c8 03bc 9f80 693b
00000010: 9870 0a3d 62ce f8bb 584c 01bc 1673 373d
00000020: 3354 46bd ac6d 9dbc 69e8 b6bc 09a5 15bc
00000030: 981c 8abb a7ff 8fbc 041a 093d 77f8 dd3c
00000040: 8a8a 4bbc 16e7 04bd 13b9 27bc fd85 123d
00000050: e769 013d 83a7 8ebc 54ce 063d b664 6c3c
00000060: 3abb 173d b155 133c c5f8 e9bc b8b0 ebbc
00000070: 2f1e c5bc 68c0 f83c 3678 86bc 3fe5 8fbc
00000080: 6e3d b6bc f961 693d f373 debc 1a18 d8bb
00000090: f3ee b13c b018 f03b d03c 41bd c200 583c
000000a0: 1bb1 0c3d 320d 9c3a 843d b2bc 84d8 4c3d
000000b0: e303 273d c201 64bc 37ad 99bb 9ab0 063d
000000c0: faaf 14bc 00f4 ccbc 7e09 f33c f5ca e23b
000000d0: 16b3 f73c 9058 0f3d 5839 31bc 43c9 0fbd
000000e0: fcaf d93c 7741 f9bc 58e2 143d 277a cebc
000000f0: be44 103d fa46 03bc 0719 19bd 6b49 a4bc
00000100: 9e21 1b3d 9bd9 d4bc b4a6 39bd a30d 25bd
00000110: 4547 92bc 0362 afbc 7212 18bd 564e 333d
00000120: 2dd8 083d 68e5 2cbc d29a 6e3c 1764 c0bb
00000130: 6c05 f3bc

log_var.weight f4 [77, 192]
-0.004274682 -0.056316912 -0.016955953 -0.018229028 -0.0029460206 0.030421719 0.0485262 -0.027152989
0.039797075 -0.036610488 0.021442343 0.004423654 -0.065136835 -0.05502009 -0.050545268 0.016040502
0.013711259 -0.057923786 0.051507957 -0.07988537 0.036367096 0.01644917 0.04939805 0.015760325
-0.029495131 -0.022960402 -0.0022403032 0.039773766 0.02898263 0.0520844 -0.005682021 0.059095062
0.030785803 0.035503004 -0.075757265 -0.03698795 -0.029759502 0.054862414 0.04632232 -0.024772244
-0.06480098 -0.062413014 -0.042345867 0.0059378166 -0.034316614 -0.01676766 0.017925464 0.007889597
-0.036210928 -0.07433522 -0.04131818 -0.010849202 -0.029889785 0.030773884 -0.06083968 0.028067162
0.03707276 -0.069388695 -0.066950746 0.023389168 -0.08904013 0.02988181 -0.06440793 -0.061994772
-0.024209648 0.03905255 0.027663127 -0.0721726 0.05336587 0.002742658 0.005173083 -0.037684817
-0.050169706 0.022130225 -0.013275945 -0.07522621 -0.020154402 -0.04261494 -0.026053132 0.032882813
0.063348666 -0.027036363 -0.06011056 -0.008361512 -0.06988196 0.059983797 -0.04267961 -0.044700913
0.0015319648 -0.06949886 -0.03539741 0.005626593 -0.027606614 0.039458897 -0.061552458 -0.026040405
0.0409951 -0.032402597 -0.0193127 0.03085351 0.00070852955 0.02898795 -0.012998648 -0.012314946
-0.008970136 0.054061208 -0.0011453554 -0.054115664 -0.054488864 -0.063708015 0.014383364 -0.062449567
-0.052210614 -0.016604738 -0.06711172 -0.08306826 0.04539404 0.038995504 -0.0050123706 0.04389974
-0.08213454 -0.04411041 0.027765188 0.054137506 -0.056177087 0.014418172 -0.044847775 -0.07883858
-0.06473438 0.04363045 0.042901274 0.05547058 0.0020109175 -0.011938474 -0.029744469 -0.06354245
-0.050474517 0.055913392 -0.023790792 -0.063831285 0.057410367 0.019858375 -0.0063351816 0.011529424
-0.05979647 -0.057559926 -0.02686488 -0.07381856 -0.027888184 -0.015080995 0.053847037 0.014998286
0.034347307 -0.016893338 0.022644 0.059661437 -0.022148188 0.045668922 -0.011116951 -0.014968714
0.040088713 -0.049226545 -0.008154797 -0.03142963 0.051681258 -0.062612705 -0.03264534 -0.055480607
0.04302338 -0.019982178 0.027317753 0.036496848 0.046593755 0.052530725 -0.013794393 -0.041539215
-0.074520454 -0.00961188 0.02279485 -0.0019368217 -0.05030511 -0.049098544 0.035606667 -0.06893248
-0.047664933 -0.05632111 -0.03592704 0.016710218 -0.033497885 0.019592922 -0.069847904 0.0071815806
-0.03421116 -0.05099342 0.05504403 -0.009150147 0.06477511 0.05430613 -0.025315857 -0.0077006794
0.04293448 0.004220519 0.016797144 0.07338411 -0.02031644 -0.024854012 0.06758916 -0.04726027
-0.012140737 0.023100754 0.0039880667 0.053514004 0.050883412 0.0011634938 -0.060849745 0.04227045
0.0015946919 -0.050286908 -0.055474292 0.16181011 -0.0008498903 -0.024458531 0.036514737 0.048300333
0.025537597 0.0658375 0.026361857 -0.025811946 -0.054378375 0.014700264 -0.056610897 -0.055118103
0.011303913 -0.018495036 -0.015951337 0.004441773 -0.053338524 -0.021513283 -0.050137624 -0.008293282
0.023603082 0.006369183 0.022403188 0.046787113 -0.023066156 0.08547309 0.0691915 -0.058839224
-0.012907393 -0.009764674 0.0024017252 -0.029278042 0.012563683 0.026390063 -0.04326196 -0.006234774
00000000: a212 8cbb 90ac 66bd 36e7 8abc 0b55 95bc
00000010: 0612 41bb f836 f93c 69c3 463d f26f debc
00000020: 4202 233d e1f4 15bd daa7 af3c 4df4 903b
00000030: 7666 85bd bf5c 61bd 8e08 4fbd 5f67 833c
00000040: 30a5 603c 7e41 6dbd 02fa 523d f19a a3bd
00000050: aaf5 143d 69c0 863c 9c55 4a3d cc1b 813c
00000060: c69f f1bc 7417 bcbc 0dd2 12bb d1e9 223d
00000070: fb6c ed3c 7456 553d 3f30 babb aa0d 723d
00000080: 8232 fc3c 996b 113d a026 9bbd ad80 17bd
00000090: 33ca f3bc 69b7 603d 79bc 3d3d 29ef cabc
000000a0: 60b6 84bd caa4 7fbd dc72 2dbd 0492 c23b
000000b0: 948f 0cbd 555c 89bc 6cd8 923c 5e43 013c
000000c0: e951 14bd 103d 98bd 403d 29bd dac0 31bc
000000d0: 6cdb f4bc 8319 fc3c 0733 79bd 1bed e53c
000000e0: 9bd9 173d a91b 8ebd 791d 89bd a49a bf3c
000000f0: ac5a b6bd b3ca f43c 4ee8 83bd 3bee 7dbd
00000100: 5053 c6bc 91f5 1f3d c89d e23c 3acf 93bd
00000110: 2c96 5a3d 2abe 333b f782 a93b 655b 1abd
00000120: c07e 4dbd 724a b53c 5983 59bc 3310 9abd
00000130: d81a a5bc 018d 2ebd 616d d5bc 21b0 063d
00000140: f2bc 813d 5d7b ddbc 7e36 76bd b9fe 08bc
00000150: 461e 8fbd 92b1 753d d1d0 2ebd 4e18 37bd
00000160: 35cc c83a 6b55 8ebd e0fc 10bd 485f b83b
00000170: 4427 e2bc a79f 213d 6e1e 7cbd b052 d5bc
00000180: 7aea 273d 96b8 04bd ab35 9ebc 80c0 fc3c
00000190: 9dbc 393a 2378 ed3c 48f8 54bc a1c4 49bc
000001a0: 7af7 12bc 496f 5d3d c01f 96ba 63a8 5dbd
000001b0: b72f 5fbd 5979 82bd 33a8 6b3c 1ecb 7fbd
000001c0: ccda 55bd a906 88bc df71 89bd b11f aabd
000001d0: 1aef 393d c0b9 1f3d d03e a4bb 37d0 333d
000001e0: 2736 a8bd 1ead 34bd d273 e33c 4abf 5d3d
000001f0: f219 66bd 323a 6c3c 4db2 37bd 1f76 a1bd
00000200: 7593 84bd d8b5 323d 3fb9 2f3d 1e35 633d
00000210: 99c9 033b 9799 43bc acaa f3bc 8b22 82bd
00000220: 5ebe 4ebd 7105 653d e8e4 c2bc fab9 82bd
00000230: 2227 6b3d 08ae a23c 5b97 cfbb e9e5 3c3c
00000240: 25ed 74bd f5c3 6bbd bd13 dcbc 2f2e 97bd
00000250: c375 e4bc 4716 77bc b68e 5c3d 5fbb 753c
00000260: c3af 0c3d e663 8abc e97f b93c 8d5f 743d
00000270: 1e70 b5bc 560f 3b3d df23 36bc 563f 75bc
00000280: 1034 243d c6a1 49bd b39b 05bc 5bbc 00bd
00000290: baaf 533d 173b 80bd 1fb7 05bd a23f 63bd
000002a0: 4939 303d aab1 a3bc 7bc9 df3c b87d 153d
000002b0: 18d9 3e3d 752a 573d e101 62bc 0625 2abd
000002c0: 2e9e 98bd 267b 1dbc 44bc ba3c f4dc fdba
000002d0: bb0c 4ebd 8e1b 49bd 4cd8 113d 792c 8dbd
000002e0: 4e3c 43bd f7b0 66bd 3b28 13bd dee3 883c
000002f0: 1435 09bd 5681 a03c 6b0c 8fbd 7753 eb3b
00000300: 0021 0cbd 7ade 50bd d975 613d 80ea 15bc
00000310: d0a8 843d 1b70 5e3d 3363 cfbc fb55 fcbb
00000320: 11dc 2f3d 484c 8a3b 2a9a 893c 694a 963d
00000330: aa6e a6bc a49a cbbc 2f6c 8a3d fc93 41bd
00000340: f1e9 46bc cb3d bd3c 54ae 823b 8031 5b3d
00000350: 206b 503d 6080 983a 953d 79bd c823 2d3d
00000360: fb04 d13a a5f9 4dbd 0339 63bd 8db1 253e
00000370: 2ccb 5eba 425d c8bc 7a90 153d 92d6 453d
00000380: 3934 d13c d0d5 863d d2f4 d73c 9373 d3bc
00000390: dcbb 5ebd 60d9 703c d4e0 67bd 85c3 61bd
000003a0: 0c34 393c e782 97bc 61ac 82bc 4b8c 913b
000003b0: 7f79 5abd a03c b0bc 1c5d 4dbd 8ce0 07bc
000003c0: 405b c13c 94b4 d03b e486 b73c d8a3 3f3d
000003d0: 3cf5 bcbc 840c af3d 46b4 8d3d 6601 71bd
000003e0: 8879 53bc 03fc 1fbc 4366 1d3b 81d8 efbc
000003f0: e8d7 4d3c f92f d83c 7433 31bd 134d ccbb

log_var.bias f4 [77]
0.006047324 -0.060696058 -0.014067748 0.013877715 -0.008684368 -0.035155136 0.03549374 -0.034065507
0.042958006 -0.0063893087 -0.03233247 -0.026477078 -0.0401343 -0.026690135 0.027293729 0.049443338
-0.022221047 -0.063243054 0.021625243 -0.04389663 -0.051453292 0.0019106345 0.04629096 -0.012149255
0.0045982255 -0.034007795 0.0010495909 0.014099472 -0.013937345 0.034736555 -0.041072987 -0.02097321
0.037744924 -0.010294697 0.025337422 0.039079364 -0.05141865 -0.032939795 -0.035044614 -0.05336002
-0.0053260284 0.03995657 0.001157532 -0.038374886 0.008944292 0.015388412 -0.016233675 -0.0005782594
-0.03117295 -0.019947978 0.009202788 -0.0076158196 -0.016788471 -0.02823334 0.017447561 -0.044424705
0.014367815 -0.0005220802 0.0010829166 0.020089062 0.044917196 -0.0044630924 -0.028282043 0.036660075
-0.04104856 -0.027242899 -0.013945584 0.045069274 0.03138924 -0.06362947 0.03699242 0.04488361
0.048304997 -0.026790837 -0.050938193 -0.049980264 0.0064537707
00000000: a128 c63b 6e9c 78bd 697c 66bc 5b5f 633c
00000010: e148 0ebc d5fe 0fbd e261 113d 4688 0bbd
00000020: bcf4 2f3d 685d d1bb 0d6f 04bd 75e6 d8bc
00000030: dd63 24bd 45a5 dabc 1997 df3c 1985 4a3d
00000040: ea08 b6bc 9385 81bd 6c27 b13c f4cc 33bd
00000050: b0c0 52bd 416e fa3a 979b 3d3d ab0d 47bc
00000060: b6ac 963b c24b 0bbd 6d92 893a 7901 673c
00000070: 7659 64bc eb47 0e3d 263c 28bd 02d0 abbc
00000080: 6c9a 1a3d 17ab 28bc 6d90 cf3c af11 203d
00000090: 5d9c 52bd e1eb 06bd f18a 0fbd 0990 5abd
000000a0: f785 aebb 80a9 233d 54b8 973a fc2e 1dbd
000000b0: 148b 123c ae1f 7c3c 7cfc 84bc 5596 17ba
000000c0: 6a5e ffbc f169 a3bc 4ac7 163c 208e f9bb
000000d0: fa87 89bc 9b49 e7bc 30ee 8e3c aef6 35bd
000000e0: fc66 6b3c 36dc 08ba a7f0 8d3a d191 a43c
000000f0: 18fb 373d 223f 92bb beaf e7bc e028 163d
00000100: 8922 28bd 802c dfbc 057c 64bc 8f9a 383d
00000110: 0192 003d 2b50 82bd 5d85 173d e0d7 373d
00000120: 76db 453d 7578 dbbc 91a4 50bd 1bb8 4cbd
00000130: 277a d33b

encoder.0.weight f4 [192, 384]
0.036004152 0.04873984 0.056719393 0.024083076 -0.051657993 0.038286373 0.0058019003 -0.007542092
0.013554243 0.04850388 0.02122632 -0.04347861 -0.020317737 0.0035606662 -0.048704028 0.026828786
0.010799923 0.048988536 0.012992719 0.017196836 0.009344851 -0.024355844 -0.043365963 -0.006678828
0.04691396 0.036974482 0.045635033 -0.02683012 0.028453067 0.03912532 -0.015507285 -0.048506964
0.006880093 -0.013992493 -0.026663655 -0.04117211 0.023479227 0.035626587 -0.017824505 -0.010618994
0.027826328 0.039800424 -0.020151155 -0.031689066 0.046273127 0.01258352 0.053013913 -0.04357823
0.010914674 -0.0036230139 -0.04194936 -0.037185207 -0.027244015 0.0080051925 -0.0027792277 0.0381523
0.033617638 0.005599683 0.029446773 0.05296173 0.051503293 -0.011382732 -0.022619763 0.030105112
0.019810824 0.03249854 0.04487438 0.02183771 0.023567412 0.0197446 -0.044132248 0.046575166
0.046478443 0.01484833 0.02626865 0.013090853 -0.031178648 -0.01595257 -0.042285375 -0.019957207
-0.016457848 0.00030082266 0.022057531 0.0018209179 0.001476994 0.024785174 0.005397026 0.008798095
0.03255187 -0.013085209 0.01703391 -0.011923042 -0.03588301 0.04754008 -0.03468667 -0.034848396
-0.025614876 0.025314236 -0.045755036 -0.010278049 -0.049260493 0.020054417 0.040441453 0.031962413
0.047346294 -0.022126421 -0.035191443 0.03364626 0.031377148 0.0132081155 0.010784438 0.04640384
0.039762657 -0.005230427 0.0020676013 0.021336786 -0.0025370033 -0.014439719 0.015930576 -0.003516914
-0.036808215 -0.0037475855 0.026467308 -0.034150362 0.03095927 -0.022354983 -0.017974673 0.049909707
0.03577047 0.012716279 -0.000824166 0.02361391 -0.0022254623 -0.04949569 -0.02866482 -0.016637336
0.02839408 -0.02029984 -0.043914642 -0.026542107 -0.017507898 -0.019782083 -0.017315611 0.039883815
0.02860211 0.0339938 -0.047392424 -0.036662422 0.007936878 0.049977724 -0.017493675 0.008015003
-0.058931496 -0.010563541 0.056753583 -0.020287443 0.0068744207 0.009072134 -0.013226075 -0.02474948
-0.043826394 0.037639674 0.008071417 0.006281365 -0.031763896 0.020043321 0.031792946 0.015864396
0.03465206 0.013300827 0.011714989 -0.019456454 -0.0089165885 -0.04565625 -0.007368824 -0.019089263
0.027533296 -0.009226792 0.0495361 -0.03887222 0.011992726 0.012124044 0.037988916 0.02058272
0.02505356 0.016093116 -0.013837295 0.05053206 0.031336073 -0.003347892 0.033415817 0.04114227
0.01984063 -0.0048976773 0.021020692 0.0066640256 -0.009488495 0.01729499 -0.010657459 0.0140439505
0.03286872 -0.023121629 -0.006531561 -0.03886986 0.031555783 -0.020495243 0.04757321 -0.023636753
-0.018390201 -0.0054794196 -0.030655282 0.03971311 -0.0073822574 -0.018818833 0.0074182046 -0.044838186
-0.019872854 -0.03890973 -0.027825652 -0.0102316355 0.019188879 0.021203173 -0.04495951 0.0088109765
-0.02136638 0.009574427 -0.018571835 -0.01047677 -0.01742041 -0.019411849 -0.031892765 0.030693278
-0.03187377 -0.04278038 -0.03579947 -0.008543799 -0.030764394 -0.017094975 -0.04230888 -0.036121298
-0.0013030083 0.03948049 -0.04448762 -0.019465964 0.027973108 0.014234315 -0.01948747 -0.052144267
0.031532884 -0.025372338 0.011594982 0.016591009 -0.037431285 -0.021454912 0.004413172 0.007938115
00000000: 1779 133d 6da3 473d 9852 683d df49 c53c
00000010: 5597 53bd 2cd2 1c3d de1d be3b a723 f7bb
00000020: 9e12 5e3c 01ac 463d d2e2 ad3c a116 32bd
00000030: 6271 a6bc 115a 693b e07d 47bd 0bc8 db3c
00000040: 29f2 303c 34a8 483d 6adf 543c 61e0 8c3c
00000050: 251b 193c e885 c7bc 82a0 31bd 12da dabb
00000060: da28 403d 8e72 173d cdeb 3a3d d7ca dbbc
00000070: 6816 e93c df41 203d 4412 7ebc 3daf 46bd
00000080: 6772 e13b c540 65bc bd6d dabc 16a4 28bd
00000090: 8257 c03c 2fed 113d b204 92bc 4afb 2dbc
000000a0: 0af4 e33c c505 233d 0914 a5bc 65cc 01bd
000000b0: e488 3d3d 1c2b 4e3c 1e25 593d 167f 32bd
000000c0: 76d3 323c 1670 6dbb 18d3 2bbd 844f 18bd
000000d0: d72e dfbc 3628 033c b423 36bb 9645 1c3d
000000e0: a6b2 093d 8c7d b73b 5c3a f13c 66ee 583d
000000f0: 1ef5 523d a37e 3abc 154d b9bc ff9e f63c
00000100: 4f4a a23c 301d 053d 33ce 373d ffe4 b23c
00000110: 7210 c13c 6dbf a13c 04c4 34bd 9ac5 3e3d
00000120: 2e60 3e3d 6946 733c 5a31 d73c 047b 563c
00000130: 5d6a ffbc f7ae 82bc 6e33 2dbd 4c7d a3bc
00000140: 9cd2 86bc bcb7 9d39 ffb1 b43c deab ee3a
00000150: b297 c13a 470a cb3c 89d9 b03b e325 103c
00000160: 1c55 053d 5863 56bc b38a 8b3c dd58 43bc
00000170: 10fa 12bd 63b9 423d 9c13 0ebd 31bd 0ebd
00000180: 4ad6 d1bc cd5f cf3c a269 3bbd 4365 28bc
00000190: 5fc5 49bd 2949 a43c f0a5 253d 05eb 023d
000001a0: 30ee 413d 7842 b5bc e724 10bd a9d0 093d
000001b0: 5385 003d da66 583c 36b1 303c f411 3e3d
000001c0: 2bde 223d 0064 abbb 9880 073b 7cca ae3c
000001d0: da43 26bb 9294 6cbc d780 823c 077c 66bb
000001e0: 36c4 16bd 0d9a 75bb f8d1 d83c 40e1 0bbd
000001f0: 4c9e fd3c cc21 b7bc 9f3f 93bc 1f6e 4c3d
00000200: 0e84 123d f157 503c d80c 58ba f571 c13c
00000210: 10d9 11bb febb 4abd 7cd2 eabc 064b 88bc
00000220: b49a e83c da4b a6bc d7df 33bd d56e d9bc
00000230: b96c 8fbc 090e a2bc 78d9 8dbc 365d 233d
00000240: f94e ea3c 153d 0b3d 8f1e 42bd 562b 16bd
00000250: ae09 023c 71b5 4c3d e54e 8fbc 5c51 033c
00000260: 2762 71bd b412 2dbc 7276 683d da31 a6bc
00000270: d242 e13b 4aa3 143c 2eb2 58bc 6cbf cabc
00000280: 4e83 33bd 0f2c 1a3d fa3d 043c e9d3 cd3b
00000290: dc1a 02bd e431 a43c 5239 023d 0df6 813c
000002a0: 52ef 0d3d b6eb 593c 3af0 3f3c 2463 9fbc
000002b0: e216 12bc 0c02 3bbd 2d76 f1bb 1661 9cbc
000002c0: 828d e13c f82b 17bc 5ee6 4a3d 7a38 1fbd
000002d0: 237d 443c eda3 463c 449a 1b3d 189d a83c
000002e0: 203d cd3c b6d5 833c d2b5 62bc b5fa 4e3d
000002f0: 415a 003d 4f68 5bbb 06df 083d cc84 283d
00000300: d188 a23c b27c a0bb 9633 ac3c e65d da3b
00000310: a275 1bbc 39ae 8d3c 9f9c 2ebc 9918 663c
00000320: 5aa1 063d 9269 bdbc b406 d6bb 0136 1fbd
00000330: a340 013d a4e5 a7bc 20dc 423d dda1 c1bc
00000340: 0ca7 96bc b48c b3bb c920 fbbc 37aa 223d
00000350: dde6 f1bb f429 9abc 6914 f33b 3fa8 37bd
00000360: 65cc a2bc cf5f 1fbd 9ff2 e3bc 97a2 27bc
00000370: ff31 9d3c 47b2 ad3c 7727 38bd ea5b 103c
00000380: 8c08 afbc 0fde 1c3c f623 98bc c2a6 2bbc
00000390: 3fb5 8ebc 9905 9fbc fda1 02bd 7870 fb3c
000003a0: 128e 02bd 7b3a 2fbd 77a2 12bd 4afb 0bbc
000003b0: 9c05 fcbc c30a 8cbc 134c 2dbd edf3 13bd
000003c0: b4c9 aaba 4bb6 213d a738 36bd 1677 9fbc
000003d0: dc27 e53c 0b37 693c 30a4 9fbc 3a95 55bd
000003e0: a028 013d a6d9 cfbc e1f8 3d3c dee9 873c
000003f0: 8c51 19bd 36c2 afbc 5f9c 903b de0e 023c

encoder.0.bias f4 [192]
-0.034819253 -0.021095747 0.017653327 -0.02251743 -0.037897676 -0.0020935081 0.049193352 -0.020654745
-0.02030729 0.017009323 -0.04252985 -0.050501667 0.00028693015 -0.014257213 0.016674202 -0.00538687
0.0031558545 0.023824304 -0.05114017 -0.011936637 0.054418154 0.017294737 -0.020049209 -0.042276353
0.017770512 0.019973911 -0.013634183 0.27574536 0.04652736 -0.011953632 -0.011114992 -0.048338022
0.02556064 -0.006693259 0.02447949 -0.011918585 -0.016991459 0.015080495 0.011642814 -0.031011961
-0.001737375 -0.026873212 -0.016144803 -0.030593773 0.018095052 -0.0071549052 -0.006261094 0.017491434
-0.047915563 0.0107423235 -0.013408573 0.012159362 0.0030883977 -0.0053366236 0.0433765 -0.011814292
-0.031288825 -0.0268953 -0.007011448 -0.034015108 -0.050517954 0.014166264 -0.024030657 0.0072404975
0.0046534804 0.0043505216 -0.03128995 -0.010591901 0.024247317 -0.006257277 0.04370297 -0.0058150226
-0.021723326 -0.001341555 -0.0037659768 0.021258475 -0.056246098 -0.019141817 -0.049630526 0.0042044884
-0.030998105 -0.013473811 -0.028553503 -0.035101924 0.03961977 -0.03525819 -0.003147598 0.033397835
-0.027139815 -0.051186014 -0.042307347 0.03998899 -0.00035366835 -0.019915415 -0.04328749 -0.020618632
-0.05492212 0.005818904 0.012010314 0.004793634 -0.043987278 0.023845846 -0.007569331 0.00912582
-0.00894397 -0.023079485 -0.0117243705 -0.043852992 -0.052317236 -0.041055683 0.050246272 0.038414247
-0.05697491 -0.024908386 -0.04907064 -0.0016540728 -0.038700342 0.0072208107 -0.0034080793 -0.020919606
-0.047240403 0.018915348 0.025533473 0.014278962 -0.04610401 -0.0489066 -0.023633989 -0.020513235
0.03416605 -0.028163215 -0.011950209 -0.0017497707 -0.003415568 0.006609323 0.000337096 0.022705298
-0.030268356 -0.05054704 -0.015603312 0.008247944 -0.03677869 -0.0031585507 -0.03812299 0.034234453
-0.0046123625 0.03654308 0.017619547 0.00015575917 -0.009535261 -0.012743105 -0.046836067 -0.04243171
-0.0076114 0.017256645 -0.043013036 -0.02709235 -0.0020033817 0.037427254 -0.02371931 -0.03499766
-0.05556959 0.018839844 -0.02254907 -0.030616915 -0.03881341 -0.007650384 -0.0011169357 0.019936083
-0.022244332 -0.024945918 -0.010606226 -0.0021473486 0.0093654925 0.025006978 0.024038842 -0.033626825
0.051456783 0.005401883 -0.0033209152 -0.056880884 -0.023268806 0.060996108 -0.02607751 0.025607431
0.026848901 -0.017708914 0.032995544 -0.01900996 0.03474895 0.0068371296 -0.01031848 -0.0122194495
00000000: a29e 0ebd fdd0 acbc b69d 903c 7976 b8bc
00000010: 983a 1bbd 3d33 09bb f87e 493d 2434 a9bc
00000020: 795b a6bc 2357 8b3c c833 2ebd d6da 4ebd
00000030: 1d6f 9639 1697 69bc 5698 883c 5784 b0bb
00000040: 74d2 4e3b 302b c33c 5b78 51bd e291 43bc
00000050: 92e5 5e3d b1ad 8d3c 3d3e a4bc f829 2dbd
00000060: 7793 913c 54a0 a33c e961 5fbc 7f2e 8d3e
00000070: 7993 3e3d 2bd9 43bc a81b 36bc 17fe 45bd
00000080: 8c64 d13c 2053 dbbb 3689 c83c 2b46 43bc
00000090: ac31 8bbc 2e14 773c 80c1 3e3c cc0c febc
000000a0: a2b8 e3ba 3625 dcbc 1b42 84bc cb9f fabc
000000b0: 133c 943c b273 eabb dd29 cdbb 324a 8f3c
000000c0: 1c43 44bd 9200 303c a2af 5bbc 1038 473c
000000d0: b766 4a3b d8de aebb 8fab 313d bb90 41bc
000000e0: b628 00bd 8853 dcbc 4ac0 e5bb 6d53 0bbd
000000f0: eaeb 4ebd 9e19 683c f1db c4bc b241 ed3b
00000100: 397c 983b d28e 8e3b e429 00bd a789 2dbc
00000110: 4fa2 c63c d809 cdbb e301 333d f28b bebb
00000120: 1ef5 b1bc 1ed7 afba 9bce 76bb 4126 ae3c
00000130: 4f62 66bd 4dcf 9cbc 6149 4bbd cec5 893b
00000140: bdef fdbc 42c1 5cbc 09e9 e9bc 09c7 0fbd
00000150: 5748 223d e46a 10bd ee47 4ebb 2bcc 083d
00000160: 5154 debc 6da8 51bd 784a 2dbd 7fcb 233d
00000170: 906c b9b9 a725 a3bc 394e 31bd 68e8 a8bc
00000180: 04f6 60bd 81ac be3b e8c6 443c eb13 9d3b
00000190: 012c 34bd 5d58 c33c 2708 f8bb 7784 153c
000001a0: bb89 12bc 3011 bdbc 9317 40bc 329f 33bd
000001b0: 994a 56bd 012a 28bd 09cf 4d3d 4258 1d3d
000001c0: 865e 69bd ac0c ccbc 4cfe 48bd 79cd d8ba
000001d0: 4084 1ebd 8d9c ec3b 155a 5fbb 985f abbc
000001e0: 277f 41bd 5cf4 9a3c 932b d13c 4ff2 693c
000001f0: 8fd7 3cbd 4952 48bd 119c c1bc 5f0b a8bc
00000200: b3f1 0b3d 8bb6 e6bc cfca 43bc 9058 e5ba
00000210: b9d7 5fbb 0593 d83b 42bc b039 7600 ba3c
00000220: 58f5 f7bc 6a0a 4fbd 09a5 7fbc 6222 073c
00000230: 40a5 16bd b0ff 4ebb da26 1cbd 6d39 0c3d
00000240: 4d23 97bb 32ae 153d de56 903c 4953 2339
00000250: c939 1cbc 75c8 50bc 2dd7 3fbd dfcc 2dbd
00000260: 0d69 f9bb cf5d 8d3c 702e 30bd c7f0 ddbc
00000270: 2b4b 03bb 524d 193d 004f c2bc b559 0fbd
00000280: f09c 63bd 0456 9a3c d4b8 b8bc 53d0 fabc
00000290: cffa 1ebd 13b0 fabb 2566 92ba ff50 a33c
000002a0: bf39 b6bc 625b ccbc bcc5 2dbc 88ba 0cbb
000002b0: b971 193c 6fdb cc3c 1bed c43c 48bc 09bd
000002c0: 59c4 523d 4702 b13b b6a3 59bb eefb 68bd
000002d0: 399e bebc 0ed7 793d 81a0 d5bc adc6 d13c
000002e0: 3af2 db3c 4912 91bc 5626 073d c7ba 9bbc
000002f0: ea54 0e3d 000a e03b d80e 29bc 1634 48bc

decoder.0.weight f4 [192, 77]
0.007156278 -0.001607688 0.009888315 -0.02522814 0.021959674 -0.03346093 -0.015080646 -0.021651486
-0.021348163 -0.004309318 -0.012935409 -0.010661524 0.013382623 -0.0018594179 -0.021612778 -0.019830193
-0.0059491666 0.026520241 -0.012299657 0.0042469734 -0.03433666 0.0071860147 -0.0056588245 -0.005089907
-0.018563803 -0.008385196 0.004863433 -0.0178457 0.027556567 0.0044349013 0.011068216 0.014416491
0.00032841504 0.005669698 0.010760227 0.013392481 -0.02169801 -0.020411525 0.013729779 0.022620961
-0.014821633 0.012215153 -0.03973167 -0.030724706 0.037843987 0.023350952 0.015882522 -0.009456844
-0.046463568 -0.01356847 0.037690837 -0.0034621 -0.010453585 0.044730663 0.011206657 0.02663803
-0.03704474 0.01671597 -0.008325275 -0.008987609 -0.0018253014 0.00302572 0.014723524 0.042353243
-0.009875801 -0.007608306 -0.014397468 -0.02156711 0.000539741 0.029043378 0.014282266 -0.03469567
-0.0010664706 -0.0036224134 0.006599878 0.016383912 -0.010906312 0.0010613898 0.008669484 0.001535095
-0.0006112156 0.002153642 0.008576106 0.006090981 -0.0148249455 0.00052271644 -0.0067802207 0.0006131607
0.0056332625 0.0021052584 0.002863563 0.0018308462 -0.00081080175 -0.004057442 0.0043652127 -0.0066644624
0.0022221962 -0.006958482 0.0023032005 -0.009293781 -0.0035268557 0.005534338 -0.00051039795 0.004210172
0.0012847505 0.00743277 -0.0029940621 0.0030467047 -0.0020665827 -0.003100478 -0.006269313 -0.0017532526
-0.0014414522 0.003339818 0.0033528965 0.00460674 -0.008539661 -0.006042994 0.0013023299 0.0083975345
-0.009925157 0.0016459444 0.012137829 0.005284866 0.0059302147 0.0043088356 -1.9003484e-05 -0.0069482075
0.0014441655 -0.010818409 0.0023203369 0.0068288236 0.009272698 0.0089428425 0.008032253 -0.0015424123
0.0022019097 -0.01098676 0.011674201 0.009040116 0.004522545 -0.011121338 0.009015707 -0.006347551
0.0027877798 0.004381962 0.002433887 -0.010169726 -0.006260532 0.0012105039 -0.0065818694 -0.0010489202
0.0035712153 0.00036163148 0.018994486 -0.020580836 0.00946462 0.020862548 0.008935292 -0.003642191
-0.0012292776 -0.017882293 -0.0056675877 -0.0046033585 0.0045676935 0.019340474 -0.0021699287 0.009378206
-0.011357791 0.010558416 0.021826692 0.021197762 -0.011821121 -0.007744688 -0.023754638 0.018839654
0.008760688 0.006261272 -5.7310295e-05 0.012890751 -0.0016608422 -0.018450756 0.030617023 0.009606255
0.019257328 -0.029205646 0.0023315297 -0.033646405 0.008917513 -0.010745926 -0.007413343 0.00045197128
0.0130934995 0.007886026 0.004869854 0.01238728 0.008085196 -0.02491554 0.003460548 0.014381982
0.008124107 0.010764692 -0.016560076 -0.0020265963 0.014688707 0.0030205506 -0.014931088 0.017921016
-0.009923191 -0.015279352 -0.0118772 0.0073615843 0.006434364 -0.0038136565 -0.02295515 0.012745866
-0.002130651 0.009705315 -0.00639652 -0.011093896 0.0115773175 0.011149053 0.0075048273 0.01558944
0.0092830565 -0.0017095794 0.0007970785 -0.00742381 0.002303672 0.0014904888 0.0047560176 0.012988749
-0.011629679 0.00945326 -0.0022318321 0.015385198 -0.00016473388 0.0077430885 -0.005496537 -0.009785382
-0.010416485 -0.0019397363 -0.0036212725 -0.008051091 0.0055066077 -0.0052093556 -0.014153095 0.017966991
0.018988824 -0.013147268 -0.008307091 -0.017724765 0.006597216 -0.007835275 -0.0061244983 -0.0025685455
00000000: 367f ea3b 0fb9 d2ba 9902 223c 3fab cebc
00000010: c6e4 b33c 540e 09bd d014 77bc 755e b1bc
00000020: 58e2 aebc 2e35 8dbb 0aef 53bc acad 2ebc
00000030: ca42 5b3c b6b7 f3ba 480d b1bc ee72 a2bc
00000040: 3af1 c2bb fa40 d93c 8084 49bc 322a 8b3b
00000050: 99a4 0cbd a978 eb3b a96d b9bb 3cc9 a6bb
00000060: 1e13 98bc 1062 09bc 6f5d 9f3b 2531 92bc
00000070: 4fbe e13c a652 913b 7657 353c 2533 6c3c
00000080: 1f2f ac39 e0c8 b93b aa4b 303c 236c 5b3c
00000090: 06c0 b1bc 1236 a7bc def2 603c 984f b93c
000000a0: 6fd6 72bc 1122 483c adbd 22bd 61b2 fbbc
000000b0: 4c02 1b3d 7f4a bf3c 101c 823c e1f0 1abc
000000c0: 9550 3ebd 4a4e 5ebc b561 1a3d 66e4 62bb
000000d0: 8345 2bbc 8037 373d 209c 373c ff37 da3c
000000e0: 3abc 17bd eeef 883c bc66 08bc c440 13bc
000000f0: f43e efba 284b 463b f03a 713c 987a 2d3d
00000100: 1dce 21bc 194f f9bb 5ce3 6bbc 82ad b0bc
00000110: 687d 0d3a 61ec ed3c 2a00 6a3c 0c1d 0ebd
00000120: d1c8 8bba 0366 6dbb ca43 d83b 8e37 863c
00000130: 63b0 32bc 551e 8b3a 740a 0e3c 3e35 c93a
00000140: fc39 20ba 1e24 0d3b cc82 0c3c da96 c73b
00000150: 54e4 72bc e806 093a 9d2c debb 85bc 203a
00000160: 3b97 b83b 60f8 093b 9daa 3b3b 01f9 ef3a
00000170: fc8b 54ba 4af4 84bb 0f0a 8f3b 9061 dabb
00000180: 44a2 113b fa03 e4bb 4bf1 163b f144 18bc
00000190: d222 67bb 6459 b53b 3acc 05ba 7cf5 893b
000001a0: 1365 a83a 988e f33b 0738 44bb 39ab 473b
000001b0: 816f 07bb 6431 4bbb cf6e cdbb 65cd e5ba
000001c0: 1cef bcba d9e0 5a3b 45bc 5b3b 23f4 963b
000001d0: efe9 0bbc 4f04 c6bb f1b2 aa3a d095 093c
000001e0: 209d 22bc bbbc d73a bfdd 463c ab2c ad3b
000001f0: 3f52 c23b 2231 8d3b ac69 9fb7 caad e3bb
00000200: 274a bd3a b23f 31bc cb10 183b 53c4 df3b
00000210: 84ec 173c 0085 123c b699 033c c52a caba
00000220: ea4d 103b d001 34bc 2645 3f3c ff1c 143c
00000230: db31 943b 4636 36bc 9eb6 133c 1eff cfbb
00000240: 2fb3 363b 9096 8f3b d981 1f3b ec9e 26bc
00000250: 2625 cdbb c5a9 9e3a b9ac d7bb ec7b 89ba
00000260: 0d0b 6a3b 5b99 bd39 539a 9b3c 2499 a8bc
00000270: 7e11 1b3c efe7 aa3c 5565 123c d3b1 6ebb
00000280: b61f a1ba e37d 92bc 2cb7 b9bb c5d7 96bb
00000290: 97ac 953b ea6f 9e3c 5d35 0ebb 0ca7 193c
000002a0: 0716 3abc 35fd 2c3c e4cd b23c eea6 ad3c
000002b0: 60ad 41bc 27c7 fdbb 1699 c2bc 9e55 9a3c
000002c0: fd88 0f3c 5b2b cd3b 7660 70b8 ba33 533c
000002d0: 9eb0 d9ba 0a26 97bc 8dd0 fa3c 8e63 1d3c
000002e0: 8bc1 9d3c ae40 efbc 94cc 183b d0d0 09bd
000002f0: c31a 123c ae0f 30bc a1eb f2bb 8ff6 ec39
00000300: 1e86 563c 6434 013c 4c93 9f3b 05f4 4a3c
00000310: c577 043c ad1b ccbc 5cca 623b 68a2 6b3c
00000320: f91a 053c 645e 303c ffa8 87bc a5d0 04bb
00000330: e7a8 703c 6ef4 453b 86a1 74bc 18cf 923c
00000340: e194 22bc 3f56 7abc 9698 42bc 7239 f13b
00000350: 5bd7 d23b 8aee 79bb 700c bcbc 09d4 503c
00000360: 64a2 0bbb 0b03 1f3c e699 d1bb 2cc3 35bc
00000370: caae 3d3c 85aa 363c 0eeb f53b da6a 7f3c
00000380: f617 183c f713 e0ba 08f3 503a 6f43 f3bb
00000390: 34f9 163b 815c c33a 5ed8 9b3b c3ce 543c
000003a0: 698a 3ebc d9e1 1a3c ee43 12bb 3312 7c3c
000003b0: 6abc 2cb9 bcb9 fd3b 4b1c b4bb de52 20bc
000003c0: e8a9 2abc c03e feba df52 6dbb b9e8 03bc
000003d0: c670 b43b 3eb3 aabb 62e2 67bc 832f 933c
000003e0: 738e 9b3c a467 57bc 771a 08bc 8733 91bc
000003f0: 752d d83b 865f 00bc 04b0 c8bb 0b55 28bb

decoder.0.bias f4 [192]
-0.055463012 -0.10356021 0.012329834 -0.09557766 -0.082530245 -0.04887483 -0.1805968 0.018628715
0.10818825 -0.046274014 -0.054662883 0.027609967 -0.09015565 -0.15431286 0.0025143137 -0.16613409
0.006445488 -0.061211634 -0.09550249 -0.09143775 -0.022874968 -0.028420758 0.079961315 -0.047890544
-0.13929859 -0.054520886 -0.08142404 -0.07835018 -0.056163713 -0.042552896 -0.12632899 0.0028452224
-0.11636842 0.02482852 -0.09815902 -0.13695487 -0.09213042 -0.14030822 0.0069178664 -0.11145339
-0.048078146 -0.16330636 0.009172691 -0.072459504 -0.026127003 -0.12317774 0.015528888 -0.0063709747
-0.16548851 0.02792295 -0.04016595 -0.09645405 -0.17578372 0.012997621 -0.062556975 -0.111798935
0.025703723 -0.09502552 -0.025242228 0.06148259 -0.04554711 0.007001847 -0.011959454 -0.07844312
0.047550827 -0.17076051 -0.08892761 -0.035248943 -0.105021164 -0.149987 -0.033964287 -0.025786353
0.0009660458 0.0063437503 0.046823688 0.041006144 0.027427936 -0.07791995 -0.076532125 -0.16866176
-0.16000085 -0.17725846 0.030619932 -0.09641457 -0.17583771 0.0015910444 -0.07970375 -0.050643317
0.00830784 -0.06992406 -0.082724646 -0.0178081 -0.16738185 -0.08229366 0.022532213 -0.032297723
-0.11463675 0.038335413 -0.026885767 -0.025107408 0.040591422 -0.12323172 -0.016070206 -0.11232829
-0.18495567 -0.09039019 -0.027327476 -0.17857239 -0.1813671 -0.0040543275 -0.10784123 -0.078591704
-0.005262322 -0.12695819 -0.06474118 0.037344933 -0.12669393 -0.017051084 -0.046869464 -0.1866192
0.06441421 -0.12625764 0.028129015 -0.17552792 -0.0031019417 -0.062079333 0.041432224 -0.016037138
-0.026405007 -0.11813885 0.048183907 -0.09318664 -0.12834202 -0.093408085 -0.019460475 -0.03492812
-0.08760142 -0.15371835 -0.18749183 -0.17358977 0.038236987 -0.0062376903 -0.017247707 -0.1357589
-0.005839656 -0.032302428 -0.09416713 -0.030432727 -0.16770445 0.102014065 -0.06853076 -0.015155451
0.04976298 -0.05217855 -0.105418265 -0.17586233 0.0020717646 -0.10071486 -0.035306472 -0.014214569
-0.0758133 0.012996262 -0.0028173667 -0.15032662 -0.12540348 -0.15573575 -0.07035358 0.08982501
-0.043289613 -0.020779302 -0.16688384 -0.080479674 0.048404682 -0.037104156 -0.1036417 -0.098550946
-0.10385203 -0.053675946 -0.0014734804 -0.115874335 -0.08690309 -0.09564128 0.012319548 0.05035008
-0.15803248 -0.061656635 -0.13260691 -0.150967 8.9807545e-06 0.0024732365 0.014894519 0.0114952
00000000: 2f2d 63bd 6017 d4bd 1203 4a3c 38be c3bd
00000010: 9e05 a9bd f930 48bd 5eee 38be 3f9b 983c
00000020: cd91 dd3d d289 3dbd 30e6 5fbd 4c2e e23c
00000030: 87a3 b8bd 3104 1ebe 2fc7 243b 0e1f 2abe
00000040: ac34 d33b 0db9 7abd cf96 c3bd b743 bbbd
00000050: 4964 bbbc a6d2 e8bc c2c2 a33d e028 44bd
00000060: 4aa4 0ebe 4b51 5fbd a6c1 a6bd 0f76 a0bd
00000070: ec0b 66bd f24b 2ebd 635c 01be e976 3a3b
00000080: 9152 eebd 2e65 cb3c 9907 c9bd e63d 0cbe
00000090: e0ae bcbd f5ac 0fbe 45af e23b ad41 e4bd
000000a0: 97ed 44bd c839 27be 0e49 163c a665 94bd
000000b0: 4c08 d6bc 9c44 fcbd e16c 7e3c 9cc3 d0bb
000000c0: d275 29be acbe e43c 0d85 24bd b389 c5bd
000000d0: a600 34be f9f3 543c df1d 80bd d7f6 e4bd
000000e0: 9d90 d23c bd9c c2bd cac8 cebc 2bd5 7b3d
000000f0: 9b8f 3abd c06f e53b 96f1 43bc c9a6 a0bd
00000100: a8c4 423d d8db 2ebe ae1f b6bd 3261 10bd
00000110: 5615 d7bd 3196 19be 231e 0bbd e73d d3bc
00000120: 3c3e 7d3a 3cdf cf3b 32ca 3f3d 0ff6 273d
00000130: 8db0 e03c 7f94 9fbd e0bc 9cbd abb5 2cbe
00000140: 43d7 23be 3e83 35be a7d6 fa3c 0175 c5bd
00000150: cd0e 34be 978a d03a b83b a3bd 5e6f 4fbd
00000160: 9b1d 083c 5834 8fbd 8a6b a9bd 4be2 91bc
00000170: 2666 2bbe 9489 a8bd 7a95 b83c 9e4a 04bd
00000180: acc6 eabd 9805 1d3d 8a3f dcbc 0dae cdbc
00000190: 3143 263d e960 fcbd aaa5 83bc 600c e6bd
000001a0: 0565 3dbe 7e1e b9bd dfdd dfbc aedb 36be
000001b0: 4cb8 39be 2ada 84bb dddb dcbd b0f4 a0bd
000001c0: 8e6f acbb 5401 02be 0697 84bd 00f7 183d
000001d0: 0ebc 01be b7ae 8bbc 32fa 3fbd 1b19 3fbe
000001e0: 99eb 833d af49 01be d26e e63c 97bd 33be
000001f0: f249 4bbb e646 7ebd d6b4 293d 5160 83bc
00000200: 504f d8bc c8f2 f1bd 7d5c 453d a3d8 bebd
00000210: 176c 03be bd4c bfbd 936b 9fbc ca10 0fbd
00000220: 6068 b3bd 5868 1dbe dcfd 3fbe 84c1 31be
00000230: 639e 1c3d 8a65 ccbb 104b 8dbc 6204 0bbe
00000240: 965a bfbb 8d4f 04bd b2da c0bd 0e4e f9bc
00000250: b7ba 2bbe c0ec d03d db59 8cbd 924e 78bc
00000260: 44d4 4b3d 2db9 55bd 88e5 d7bd 4115 34be
00000270: 71c6 073b 9843 cebd 859d 10bd 39e4 68bc
00000280: 0144 9bbd 46ee 543c 92a3 38bb 39ef 19be
00000290: c569 00be 3179 1fbe 8a15 90bd 2df6 b73d
000002a0: 7350 31bd 5b39 aabc 99e3 2abe 87d2 a4bd
000002b0: fd43 463d 87fa 17bd 1a42 d4bd 14d5 c9bd
000002c0: 60b0 d4bd 4fdb 5bbd cc21 c1ba 864f edbd
000002d0: 3ffa b1bd 93df c3bd eed7 493c e33b 4e3d
000002e0: 44d3 21be ab8b 7cbd 1bca 07be 1897 1abe
000002f0: 0cac 1637 0616 223b 2408 743c 5d56 3c3c

decoder.2.weight f4 [384, 192]
-0.0069644046 0.008768417 0.009796644 0.012348521 -0.0028817172 -0.0053952103 -0.0013436491 0.024996867
0.0139273 -0.0013388039 0.017369205 -0.0071106097 -0.014673145 -0.012085726 0.008744438 -0.013017594
-0.016631758 -0.009559602 0.015351847 -0.03440041 -0.0074005625 0.0072432444 0.014433343 -0.0059648105
-0.00034831616 0.0041155717 -0.00074572983 0.013174611 0.021321068 0.0020974698 -0.0015805152 -0.0069049574
-0.0097518405 -0.004337681 0.0035282476 0.0037688883 0.0065059825 0.002118465 -0.019142626 -0.016243394
0.019964267 0.00314634 -0.013592203 0.0036922565 -0.004966827 -0.017009014 0.00075092306 -0.017267935
-0.019809902 0.0028364814 0.0016129195 -0.0037596608 0.013452002 -0.0031303996 -0.0014880385 -0.003497291
8.154401e-05 -0.016338415 0.0037911073 0.0028175197 0.0055507356 0.022300495 0.0018028418 -0.01954663
-0.0049387557 -0.015288868 -0.004071232 0.019138612 0.011964004 -0.006488792 0.010923502 0.013553396
0.010655376 0.026250994 0.0057271686 -0.007519564 -0.0030609479 0.010872326 -0.009506726 0.021115778
-0.0017834525 -0.00074069004 0.010383313 -0.0067811324 -0.003163392 -0.008889768 -0.006730775 0.01562554
-0.005330175 0.032527056 -0.0035817267 -0.0045483448 -0.005262606 -0.0004738423 0.012990311 -0.0006723484
-0.012661548 -0.000588267 -0.004971972 0.009067954 0.002850362 0.0100895045 -0.0052375197 0.0032866478
-0.004222328 -0.0068508275 -0.01832444 0.0060468554 0.0015340784 0.005078154 -0.0051352056 0.017291192
0.00094463734 -0.020321593 -0.009884987 -0.00024811903 0.0080225365 0.0088921925 0.011001798 0.008506457
-0.0017410532 0.00014204225 -0.0036892332 0.0051124506 -0.0067649595 -0.0006724397 -0.011972437 -0.0010498251
0.009446233 0.02532962 0.0061336565 0.016527828 -0.0006762008 0.003208015 0.006222515 -0.0034661375
-0.01371055 -0.0010912246 -0.006462785 0.014270384 -0.006999397 0.019454591 -0.010054118 0.013828976
-0.0018921249 -0.0012977106 -0.010509057 0.0008486422 -0.015007054 0.005898149 -0.0068639154 0.000399842
0.0045054443 0.005692822 -0.0036816031 0.008466066 0.005605139 0.00530372 -0.010072453 -0.005698224
0.0070058433 0.012088468 -0.006974697 0.014837487 0.019153984 -0.0017428916 -0.00030653353 0.008617238
-0.015917622 0.015294825 -0.018870594 -0.013178177 0.008997071 0.003581288 -0.02065365 0.0071464316
0.0061913827 -0.009641394 -0.011389367 0.003504785 -0.026320469 0.0037037048 0.0052561066 -0.007906072
-0.008374763 0.007311128 -0.025684768 0.002779123 0.013995647 0.0029689812 0.004824817 0.021029051
-0.017015837 -0.00032024833 -0.032861747 -0.01117558 0.0057834163 0.013105556 0.020392256 0.031332728
0.009760797 0.0037346047 -0.005292439 -0.0005266739 -0.026118785 0.0010601464 -0.0025117963 0.0058203586
-0.004634421 0.016500885 -0.020069383 -0.0015452434 -0.019470785 -0.032669477 0.010510407 -0.003794067
-0.009696641 0.008319548 -0.011270785 -0.026166277 0.0017978337 -0.010663813 0.021958632 0.0044675968
-0.04102133 -0.030692456 0.012470652 0.013196284 0.01087975 0.015020794 0.01742462 -0.0007083608
-0.03275645 0.00853296 0.01763767 7.565696e-05 -7.724212e-05 0.010885855 0.017972497 -0.011372268
-0.015081897 -0.014807112 -0.014604862 -0.019595193 0.034610145 0.03335338 0.012945781 0.01999754
-0.00035812586 0.03646613 -0.015929012 0.022896022 -0.031653672 0.015071515 -0.025888054 0.010378153
00000000: a935 e4bb 68a9 0f3c 1a82 203c 7351 4a3c
00000010: 31db 3cbb 4eca b0bb 621d b0ba 3bc6 cc3c
00000020: 552f 643c ce7a afba dd49 8e3c 1e00 e9bb
00000030: a167 70bc 3503 46bc d544 0f3c bf47 55bc
00000040: 533f 88bc e09f 1cbc 5086 7b3c 72e7 0cbd
00000050: 6b80 f2bb bd58 ed3b d479 6c3c 7574 c3bb
00000060: 349e b6b9 ebdb 863b 157d 43ba 53da 573c
00000070: 85a9 ae3c b475 093b 4a29 cfba fb42 e2bb
00000080: 2fc6 1fbc 1b23 8ebb 2c3a 673b 74ff 763b
00000090: 2330 d53b f2d5 0a3b ffd0 9cbc de10 85bc
000000a0: 1a8c a33c d332 4e3b d5b1 5ebc c9f9 713b
000000b0: c4c0 a2bb 7d56 8bbc 98d9 443a 7c75 8dbc
000000c0: 6048 a2bc 43e4 393b 9968 d33a a464 76bb
000000d0: c965 5c3c 6427 4dbb 490a c3ba ce32 65bb
000000e0: 9b02 ab38 24d8 85bc 3a74 783b 23a6 383b
000000f0: f2e2 b53b 87af b63c 554d ec3a 4120 a0bc
00000100: 49d5 a1bb 297e 7abc f867 85bb 94c8 9c3c
00000110: ab04 443c ef9f d4bb 7df8 323c 100f 5e3c
00000120: e393 2e3c 530c d73c f9aa bb3b ad66 f6bb
00000130: 2f9a 48bb d721 323c 19c2 1bbc fffa ac3c
00000140: bcc2 e9ba de2a 42ba c51e 2a3c 4334 debb
00000150: e950 4fbb 64a6 11bc d58d dcbb 2201 803c
00000160: c0a8 aebb 173b 053d 67bb 6abb 480a 95bb
00000170: f071 acbb 096e f8b9 50d5 543c 8a40 30ba
00000180: 6272 4fbc ee35 1aba edeb a2bb c191 143c
00000190: 24cd 3a3b 734e 253c 809f abbb cd64 573b
000001a0: 745b 8abb e87c e0bb 231d 96bc b324 c63b
000001b0: 2113 c93a a566 a63b 3a45 a8bb 42a6 8d3c
000001c0: 8aa1 773a 7879 a6bc a4f4 21bc f915 82b9
000001d0: f570 033c 8fb0 113c e340 343c ab5e 0b3c
000001e0: 0d34 e4ba 2df1 1439 10c7 71bb 5886 a73b
000001f0: 98ac ddbb aa46 30ba 0a28 44bc 499a 89ba
00000200: 5fc4 1a3c 1080 cf3c d7fc c83b 5e65 873c
00000210: 1143 31ba 903d 523b 3de6 cb3b 2328 63bb
00000220: 37a2 60bc 6c07 8fba c5c5 d3bb 54ce 693c
00000230: 335b e5bb 3c5f 9f3c 07ba 24bc ee92 623c
00000240: 2d01 f8ba f117 aaba 2e2e 2cbc 6a77 5e3a
00000250: 26e0 75bc 4345 c13b b2ea e0bb e3a1 d139
00000260: 68a2 933b da8a ba3b 0d47 71bb 41b5 0a3c
00000270: 50ab b73b d4ca ad3b ee06 25bc 2bb8 babb
00000280: 4691 e53b b60e 463c 008c e4bb ee18 733c
00000290: d1e8 9c3c bd71 e4ba 3cb6 a0b9 512f 0d3c
000002a0: ac65 82bc 2597 7a3c 8196 9abc 48e9 57bc
000002b0: 7368 133c 0bb4 6a3b d831 a9bc 9d2c ea3b
000002c0: 15e1 ca3b f0f6 1dbc 789a 3abc 89b0 653b
000002d0: 069e d7bc dbb9 723b 6b3b ac3b 7888 01bc
000002e0: 4d36 09bc 3092 ef3b dd68 d2bc f221 363b
000002f0: 004e 653c 3d93 423b 8019 9e3b 1e45 ac3c
00000300: cc64 8bbc 01e7 a7b9 0a9a 06bd c819 37bc
00000310: d082 bd3b b0b8 563c a90d a73c bf56 003d
00000320: c0eb 1f3c 45c0 743b 326c adbb 7d10 0aba
00000330: 10f7 d5bc 9cf4 8a3a f39c 24bb b5b8 be3b
00000340: 57dc 97bb dd2c 873c 8c68 a4bc c489 caba
00000350: 3281 9fbc 6ed0 05bd d833 2c3c e2a5 78bb
00000360: a9de 1ebc b74e 083c 19a9 38bc a95a d6bc
00000370: 4aa5 eb3a 46b7 2ebc 97e2 b33c eb64 923b
00000380: fb05 28bd bf6e fbbc b551 4c3c 3a35 583c
00000390: fb40 323c c719 763c 14be 8e3c 4ab1 39ba
000003a0: a12b 06bd d4cd 0b3c e07c 903c 05aa 9e38
000003b0: 0cfd a1b8 965a 323c 0f3b 933c c052 3abc
000003c0: 101a 77bc 8799 72bc 3b49 6fbc 1986 a0bc
000003d0: 5ec3 0d3d 8e9d 083d 8b1a 543c e2d1 a33c
000003e0: d7c2 bbb9 825d 153d 8f7d 82bc 7090 bb3c
000003f0: 48a7 01bd 84ee 763c 2f13 d4bc 2109 2a3c
