models/vae_banking77_supervised.pth (torch, 800241 bytes, 12 tensors)

mean.weight f4 [77, 192]
-0.03308289 0.03623641 -0.0637595 0.05661043 0.03771177 0.057481013 -0.06358126 0.004969346
-0.01713093 -0.03023902 -0.04684486 -0.0052707274 -0.050211113 0.03206152 0.040826477 -0.07660005
-0.03006775 0.029655093 0.037883215 0.042351805 -0.045890473 -0.06880923 -0.049683284 0.06939814
-0.015531514 0.066972755 0.058557972 -0.05259527 0.05679177 -0.03180478 -0.024522172 0.06335117
-0.033378504 -0.019874154 -0.03194523 0.06446059 -0.032794897 0.040463723 0.045530863 -0.0632741
-0.026053458 -0.05292677 -0.030075956 0.023448544 -0.03856708 0.022631928 -0.05806312 0.05735528
-0.0028567575 -0.017633216 0.056369998 0.041954223 -0.040012635 -0.01071039 -0.047518447 -0.04830548
0.0441175 0.037674293 0.052267652 -0.036804397 0.035531573 0.08301511 -0.034303255 0.054881662
-0.008563613 -0.06660846 0.01695939 -0.05217392 -0.06580531 -0.028082369 -0.057964932 0.05915808
-0.008184088 -0.010083389 0.046301402 -0.012295844 -0.014122413 -0.0364751 0.01839221 0.0054023545
0.004459037 -0.031061552 -0.018684769 0.011793608 -0.024804877 -0.04576751 -0.04802809 0.04809287
-0.021898618 -0.051993456 -0.03450587 0.019791761 -0.0109998025 -0.036374982 0.027103567 0.044132043
-0.04572015 -0.032898936 0.020853369 -0.022198172 0.027191736 -0.019367209 0.048210558 -0.028306799
0.0021095201 -0.0124784075 0.022534613 0.045696724 -0.005133606 0.02063964 0.037956133 -0.066463046
-0.06801369 -0.07290962 0.0315495 0.044638004 -0.029603934 0.055461004 -0.018041851 -0.037374843
0.04150247 -0.00041023956 0.06217838 -0.06954973 0.055808824 -0.06886447 0.00053704163 0.037392765
-0.055687137 -0.026430437 0.017538175 -0.034727797 -0.053834185 -0.0296373 0.007443932 -0.029587306
0.048792787 0.051847614 -0.07318367 0.039653275 0.060842298 -0.033749 0.039787892 0.055365466
0.025668176 0.043991335 0.07363263 -0.0019264121 -0.05893143 -0.019423781 -0.046770338 -0.017202001
-0.07184421 0.037337344 0.043098982 0.07506255 0.028080871 0.054279037 0.02607722 0.058663733
-0.047921404 0.003958863 0.035284262 0.017688686 0.05863458 -0.04064344 -0.07545433 0.014053109
0.04985198 0.015325426 0.068701774 0.05507596 -0.029661369 0.011464477 0.0054869484 0.05341374
0.033191096 -0.060283527 -0.06411026 0.04079161 -0.019536145 0.057444967 -0.04568326 -0.014723371
-0.02870522 -0.05881698 -0.015866961 -0.025841037 0.04407546 0.030652685 0.053464625 0.034055647
-0.07064342 -0.0359527 -0.018306179 0.0015643509 -0.034338787 -0.028326586 0.0362518 0.06849044
-0.016446812 0.038814787 0.0066350936 -0.025191901 -0.016860202 0.03339602 0.06805546 0.038267083
-0.03242891 -0.024307847 0.010764223 0.07069441 -0.06435401 -0.049877863 -0.05757907 0.064688325
0.054375987 0.036422588 0.0049705133 0.022591857 0.036077566 -0.031668063 0.0006390633 -0.00695548
-0.004873033 0.030428585 0.022484707 -0.045685764 -0.028259652 -0.03481942 -0.00523391 -0.048588388
-0.009986927 0.06749338 -0.008560543 0.036914267 0.03950387 0.007258763 -0.021152843 -8.8934234e-05
0.064983614 -0.023328118 0.04330344 0.04466174 -0.07912068 -0.009615312 -0.027952421 -0.055707596
-0.0348581 -0.033530228 0.04834751 0.045644034 -0.017448947 0.03436059 -0.058639552 -0.0047077714
00000000: ed81 07bd a16c 143d 5794 82bd 57e0 673d
00000010: a877 1a3d 3671 6b3d e436 82bd e5d5 a23b
00000020: 2a56 8cbc d2b7 f7bc 65e0 3fbd 11b6 acbb
00000030: 2baa 4dbd f152 033d aa39 273d 7de0 9cbd
00000040: a450 f6bc 3def f23c 6e2b 1b3d 1679 2d3d
00000050: a6f7 3bbd dbeb 8cbd b380 4bbd 9d20 8e3d
00000060: e477 7ebc 0329 893d 7cda 6f3d 236e 57bd
00000070: 7d9e 683d bb45 02bd b9e2 c8bc 42be 813d
00000080: e6b7 08bd 1fcf a2bc 00d9 02bd ea03 843d
00000090: f153 06bd 4abd 253d 927e 3a3d da95 81bd
000000a0: 106e d5bc bec9 58bd da61 f6bc 2917 c03c
000000b0: 84f8 1dbd 9866 b93c 98d3 6dbd 5fed 6a3d
000000c0: 7038 3bbb 8973 90bc 3ae4 663d 31d8 2b3d
000000d0: 4ae4 23bd a27a 2fbc b4a2 42bd f8db 45bd
000000e0: 8db4 343d 5c50 1a3d 9b16 563d 35c0 16bd
000000f0: 8e89 113d d303 aa3d 9281 0cbd 98cb 603d
00000100: 654e 0cbc 046a 88bd 6bee 8a3c 52b4 55bd
00000110: efc4 86bd ff0c e6bc a36c 6dbd be4f 723d
00000120: 8e16 06bc cc34 25bc 8aa6 3d3d 8274 49bc
00000130: b161 67bc ea66 15bd 43ab 963c 3c06 b13b
00000140: 1d1d 923b cc74 febc cd10 99bc fa39 413c
00000150: 9933 cbbc b676 3bbd 1ab9 44bd 07fd 443d
00000160: bb64 b3bc 17f7 54bd 0756 0dbd 5522 a23c
00000170: 8438 34bc effd 14bd 4d08 de3c cdc3 343d
00000180: 0d45 3bbd 09c1 06bd afd4 aa3c f1d8 b5bc
00000190: 34c1 de3c fba7 9ebc 6f78 453d a9e3 e7bc
000001a0: e03f 0a3b 3c72 4cbc 829a b83c 7d2c 3b3d
000001b0: cf37 a8bb 7614 a93c e477 1b3d c71d 88bd
000001c0: c34a 8bbd a451 95bd 0c3a 013d 57d6 363d
000001d0: f383 f2bc 142b 633d 81cc 93bc 5d16 19bd
000001e0: 7efe 293d 6c15 d7b9 c2ae 7e3d 1770 8ebd
000001f0: cb97 643d d108 8dbd 41c8 0c3a 2829 193d
00000200: 3218 64bd a584 d8bc 38ac 8f3c bc3e 0ebd
00000210: 3c81 5cbd ecc9 f2bc 3aec f33b 1461 f2bc
00000220: f2da 473d 2a5e 543d 52e1 95bd 796b 223d
00000230: c635 793d 643c 0abd a1f8 223d e6c6 623d
00000240: 1146 d23c 4230 343d b4cc 963d aa7f fcba
00000250: 1562 71bd 9f1e 9fbc 4192 3fbd 36eb 8cbc
00000260: 0f23 93bd 0bef 183d 8f88 303d 65ba 993d
00000270: db09 e63c b253 5e3d e59f d53c 6249 703d
00000280: 3c49 44bd 5ab9 813b 3b86 103d dde7 903c
00000290: d02a 703d bc79 26bd cd87 9abd 033f 663c
000002a0: 9731 4c3d 7f17 7b3c 84b3 8c3d 5497 613d
000002b0: 66fc f2bc 80d5 3b3c dccb b33b 5ec8 5a3d
000002c0: 63f3 073d dceb 76bd 3d4c 83bd 1a15 273d
000002d0: 440a a0bc 6a4b 6b3d 5f1e 3bbd 4b3a 71bc
000002e0: 3627 ebbc 13ea 70bd 6efb 81bc 95b0 d3bc
000002f0: 7888 343d 571b fb3c b9fd 5a3d ef7d 0b3d
00000300: 7fad 90bd 2343 13bd d7f6 95bc e80a cd3a
00000310: d4a6 0cbd 280d e8bc c47c 143d b744 8c3d
00000320: 77bb 86bc 41fc 1e3d 336b d93b 3f5f cebc
00000330: 681e 8abc 44ca 083d a960 8b3d f2bd 1c3d
00000340: 2dd4 04bd 4021 c7bc 6c5c 303c 3bc8 903d
00000350: 09cc 83bd bb4c 4cbd 08d8 6bbd 507b 843d
00000360: 5bb9 5e3d da2f 153d b0df a23b 8f12 b93c
00000370: 12c6 133d 5fb6 01bd d086 273a ccea e3bb
00000380: f7ad 9fbb 5e45 f93c d931 b83c ff20 3bbd
00000390: c980 e7bc cf9e 0ebd 3881 abbb 9e04 47bd
000003a0: 35a0 23bc f839 8a3d 8541 0cbc 6a33 173d
000003b0: cfce 213d ebda ed3b ba48 adbc 3482 bab8
000003c0: 2116 853d 9c1a bfbc f35e 313d 3bef 363d
000003d0: 060a a2bd 8b89 1dbc 7afc e4bc a62d 64bd
000003e0: 5ec7 0ebd fe56 09bd 0a08 463d 3df5 3a3d
000003f0: 18f1 8ebc b1bd 0c3d 0730 70bd a643 9abb

mean.bias f4 [77]
0.0009584029 -0.0066957823 -0.029435059 0.018071068 -0.05168517 0.017814063 -0.022122769 -0.03843418
0.015262932 -0.02009933 -0.038255308 0.020776117 -0.00640994 -1.9025601e-05 0.00782669 0.025052087
-0.02773933 0.009727493 -0.03454623 -0.04151348 0.0025315688 -0.00455431 0.05212712 -0.04267115
-0.007890653 -0.03625519 -0.020534437 -0.046977974 -0.0048376457 -0.011646479 0.033829473 -0.028162597
0.031330112 -0.011526095 -0.040562954 -0.02670058 0.0068721552 -0.02405568 -0.010930365 -0.041967597
0.005933037 0.04084881 -0.0044091516 -0.034295246 0.033260193 0.007160472 -0.032291863 -0.004220246
0.035049845 -0.0009720189 -0.01001518 0.038499467 0.0024471125 -0.0040467842 -0.016440488 0.033443194
0.009176071 0.023504704 0.01780307 0.004410628 -0.026163248 0.03616063 0.010912334 -0.027563328
-0.03267238 -0.022676917 0.0073606987 0.03276463 7.015294e-05 0.03155903 -0.0076236282 -0.029659571
0.016222317 0.031314615 0.026341751 -0.03927635 0.040960297
00000000: 543d 7b3a 4b68 dbbb cb21 f1bc c709 943c
00000010: d4b3 53bd ccee 913c cf3a b5bc 296d 1dbd
00000020: 6011 7a3c 5aa7 a4bc 99b1 1cbd ad32 aa3c
00000030: 790a d2bb 2b99 9fb7 843b 003c 093a cd3c
00000040: 973d e3bc 1060 1f3c 5980 0dbd 0a0a 2abd
00000050: ade8 253b 523c 95bb 3f83 553d f2c7 2ebd
00000060: cc47 01bc 5280 14bd d637 a8bc fa6b 40bd
00000070: 1d85 9ebb e0d0 3ebc c690 0a3d 3fb5 e6bc
00000080: 0154 003d f2d7 3cbc 5725 26bd 2dbb dabc
00000090: d12f e13b 6b10 c5bc 4615 33bc 37e6 2bbd
000000a0: ec69 c23b 1551 273d a57a 90bb 2c79 0cbd
000000b0: d73b 083d 65a2 ea3b 7944 04bd fd49 8abb
000000c0: 6d90 0f3d 16cf 7eba b616 24bc 9eb1 1d3d
000000d0: bc5f 203b e39a 84bb 34ae 86bc bbfb 083d
000000e0: 3b57 163c f08c c03c bed7 913c 0887 903b
000000f0: 4f54 d6bc 2b1d 143d a5c9 323c 7dcc e1bc
00000100: 79d3 05bd f1c4 b9bc 0432 f13b 3434 063d
00000110: 131f 9338 0b44 013d a1cf f9bb a1f8 f2bc
00000120: aae4 843c c143 003d a8ca d73c 3de0 20bd
00000130: fcc5 273d

log_var.weight f4 [77, 192]
-0.03197576 -0.022117587 -0.078218855 0.032003995 -0.031766526 -0.043557208 -0.039910346 0.041825354
0.017978247 0.0036134631 0.013008972 -0.009973144 -0.028380383 0.003320499 -0.033164978 0.07091148
-0.078781284 -0.022984931 -0.05328798 -0.07305135 0.036798704 0.02965958 0.048673347 0.035793915
0.005004273 -0.010198689 0.059646517 -0.044988066 -0.079685 -0.06123583 -0.013282271 -0.014900527
-0.032149766 0.029831 -0.044753917 -0.03006347 -0.06429879 -0.037463788 0.0016860632 0.055228554
0.045551855 0.03312569 0.03830179 -0.05775155 0.026882228 -0.006003012 0.06320196 0.04234421
0.017932063 0.031024978 -0.013347399 -0.05372915 0.0012744094 0.06965003 -0.021317482 -0.017246855
-0.023937918 0.008294659 0.06017759 0.00873366 0.055849213 0.036271274 -0.014459902 -0.04655235
0.028112212 -0.05362354 -0.04797568 0.018556746 -0.053396232 -0.00407103 0.036111303 0.05469034
-0.0428267 0.05034343 -0.0014426309 -0.005452261 -0.0011335674 0.013433805 -0.03891507 0.02377059
0.052669298 0.03653487 0.023557335 -0.019074023 -0.04272298 -0.07338054 0.022316428 0.070050836
0.03061189 0.058856204 -0.02384332 0.039012402 0.032403424 0.013043087 -0.009595847 -0.042704836
0.023822313 -0.05721085 -0.06117361 -0.02365247 0.04025489 -0.05745178 -0.04496135 0.036243543
-0.060510762 -0.0057421955 -0.014033958 0.044151194 0.026676398 0.0058188266 0.057233296 0.062430844
0.02492419 0.0036022277 -1.0223828e-05 -0.030264564 -0.04803773 0.00529963 0.038795885 0.023642724
-0.063843496 0.053708624 0.0417531 0.025900338 0.006765461 0.07482876 0.04032344 0.018210484
0.015386499 -0.039334435 0.028874408 -0.045640517 -0.01158457 0.027344644 -0.0032575498 -0.06374198
0.06399732 0.06102409 -0.012635926 -0.017949274 0.02234851 0.021145146 0.045925163 -0.04810073
0.004347 -0.03168779 -0.053514488 -0.046189956 0.004520079 -0.034460638 0.012468938 -0.07459064
-0.009577552 -0.05655524 -0.044750426 -0.061040957 0.018617766 0.05651726 -0.040856883 0.025689224
-0.06589775 -0.05494551 -0.064021945 0.038147833 0.0007393482 -0.003482579 0.0053314157 0.024737304
0.04316943 0.011438856 0.04090582 -0.03794964 0.03340279 -0.036295608 0.041263197 -0.021313157
0.035733532 -0.013714465 0.04482875 0.048043836 -0.0148470625 -0.03505251 -0.031903327 0.041237656
0.01380208 -0.04544541 0.046394408 -0.030660717 0.0348563 0.057584185 -0.041979887 -0.035764884
0.034940053 -0.029359508 -0.076512545 -0.028433343 -0.0055534476 -0.025538804 -0.023040278 0.02602514
0.016216015 0.023600413 -0.07458979 -0.07351734 0.016033009 -0.01352638 -0.016767222 0.077495545
-0.072530985 -0.027991846 -0.014931851 0.031506404 -0.016646177 -0.06002956 0.028197724 0.04527122
0.03476824 -0.00049719604 -0.020635564 -0.054071575 0.03730784 0.067893535 -0.0041131773 -0.035389833
0.045402724 -0.03910214 0.02329426 0.049537085 0.026243823 -0.03681932 -0.002720943 0.039134197
-0.06957181 0.008376098 -0.043894902 0.058190655 -0.069068685 0.043707896 0.04409441 0.0052051116
-0.04675521 0.039302662 -0.039474573 0.044118132 0.019731918 0.030424474 -0.033269815 0.04726736
0.008097865 0.019244561 0.04881868 0.041129224 -0.025691114 -0.07007934 0.038847093 -0.0048788483
00000000: 04f9 02bd f12f b5bc 3531 a0bd 9f16 033d
00000010: 9e1d 02bd 0b69 32bd 0879 23bd 1051 2b3d
00000020: 1e47 933c dacf 6c3b 9523 553c 6666 23bc
00000030: fa7d e8bc bb9c 593b 00d8 07bd 0a3a 913d
00000040: 1558 a1bd e54a bcbc 7f44 5abd f29b 95bd
00000050: 3dba 163d a6f8 f23c b45d 473d a49c 123d
00000060: e2fa a33b 6718 27bc e84f 743d 6845 38bd
00000070: e431 a3bd 6cd2 7abd e29d 59bc 5721 74bc
00000080: 79af 03bd 2460 f43c e24f 37bd ab47 f6bc
00000090: 16af 83bd a173 19bd e5fe dc3a 5637 623d
000000a0: 9594 3a3d ceae 073d 56e2 1c3d e48c 6cbd
000000b0: 1e38 dc3c eab4 c4bb 0770 813d 1f71 2d3d
000000c0: 43e6 923c 1828 fe3c 0daf 5abc 1913 5cbd
000000d0: 150a a73a ada4 8e3d 00a2 aebc 4749 8dbc
000000e0: 7419 c4bc 52e6 073c c77c 763d a017 0f3c
000000f0: 25c2 643d 3091 143d 3ae9 6cbc adad 3ebd
00000100: 954b e63c 5ba4 5bbd 2682 44bd 5104 983c
00000110: 02b6 5abd 4666 85bb 72e9 133d fa02 603d
00000120: 0d6b 2fbd ea34 4e3d a916 bdba e1a8 b2bb
00000130: 3694 94ba 7619 5c3c 6965 1fbd 8aba c23c
00000140: c3bb 573d 96a5 153d 50fb c03c 2041 9cbc
00000150: 4bfe 2ebd 8948 96bd f1d0 b63c d076 8f3d
00000160: c9c5 fa3c 3413 713d 1153 c3bc 78cb 1f3d
00000170: 74b9 043d acb2 553c e637 1dbc 44eb 2ebd
00000180: 0327 c33c ed55 6abd 2e91 7abd d3c2 c1bc
00000190: 50e2 243d 8f52 6bbd 6429 38bd 1c74 143d
000001a0: 22da 77bd 0729 bcbb b0ee 65bc e2d7 343d
000001b0: 7688 da3c dbab be3b 766d 6a3d 7cb7 7f3d
000001c0: d12d cc3c 5a13 6c3b 0287 2bb7 64ed f7bc
000001d0: 36c3 44bd 85a8 ad3b 6fe8 1e3d 63ae c13c
000001e0: 61c0 82bd 93fd 5b3d 4c05 2b3d f22c d43c
000001f0: cdb0 dd3b d23f 993d 312a 253d 272e 953c
00000200: a817 7c3c 251d 21bd 068a ec3c 8df1 3abd
00000210: 35cd 3dbc e001 e03c 9e7c 55bb 288b 82bd
00000220: 0711 833d 65f4 793d ea06 4fbc 5b0a 93bc
00000230: 3914 b73c 9638 ad3c 061c 3c3d 4505 45bd
00000240: 4771 8e3b 0ecb 01bd 0232 5bbd ae31 3dbd
00000250: 2c1d 943b 9926 0dbd 844a 4c3c fac2 98bd
00000260: 2aeb 1cbc 78a6 67bd 394c 37bd 1506 7abd
00000270: 4984 983c a47e 673d 8c59 27bd 3572 d23c
00000280: 66f5 86bd 8b0e 61bd f01d 83bd e740 1c3d
00000290: d1d0 413a fb3b 64bb 28b3 ae3b e3a5 ca3c
000002a0: 6ed2 303d 0a6a 3b3c dc8c 273d 1571 1bbd
000002b0: 5dd1 083d b4aa 14bd 9903 293d ee98 aebc
000002c0: 535d 123d a3b2 60bc 5a9e 373d 9dc9 443d
000002d0: 1841 73bc 3993 0fbd 10ad 02bd d1e8 283d
000002e0: 1f22 623c f724 3abd 1008 3e3d 2f2c fbbc
000002f0: 7bc5 0e3d 65dd 6b3d 1af3 2bbd 337e 12bd
00000300: 4d1d 0f3d 5a83 f0bc 9cb2 9cbd 0bed e8bc
00000310: b2f9 b5bb c136 d1bc f7be bcbc ad32 d53c
00000320: 73d7 843c a755 c13c 88c2 98bd 4290 96bd
00000330: a857 833c c09d 5dbc 6a5b 89bc fcb5 9e3d
00000340: 208b 94bd 284f e5bc b9a4 74bc dc0c 013d
00000350: 905d 88bc 8ee1 75bd eafe e63c 516e 393d
00000360: 2469 0e3d 4356 02ba ea0b a9bc 287a 5dbd
00000370: 1bd0 183d c40b 8b3d d5c7 86bb eef4 10bd
00000380: 35f8 393d 9129 20bd 9bd3 be3c 66e7 4a3d
00000390: 49fd d63c dbcf 16bd d951 32bb 2e4b 203d
000003a0: aa7b 8ebd e73b 093c 24cb 33bd 5359 6e3d
000003b0: e273 8dbd 0d07 333d 579c 343d a48f aa3b
000003c0: 6482 3fbd d4fb 203d 17b0 21bd 37b5 343d
000003d0: d5a4 a13c bf3c f93c ee45 08bd 6b9b 413d
000003e0: e8ac 043c c5a6 9d3c 19f6 473d 1e77 283d
000003f0: 2c76 d2bc c285 8fbd 211e 1f3d bfde 9fbb

log_var.bias f4 [77]
-5.283204e-06 -0.023452988 -0.000530082 -0.014219965 -0.02289439 -0.030976316 -0.051120315 0.0027605793
0.005500144 -0.0013672432 0.049072273 -0.008811189 -0.031809956 0.00081293785 -0.022029854 -0.023900077
0.013622938 -0.042318977 0.022852873 0.034082223 0.0057457373 0.041984826 -0.048185933 -0.011419555
0.016214952 0.03493372 0.012024167 -0.022050807 0.015899269 -0.0077119493 0.008171072 -0.0021058235
-0.020522252 -0.015722614 0.050683916 -0.0076497244 -0.024679687 0.025105208 0.0015431371 0.004273841
0.0065621366 0.039252967 0.036729045 0.038692232 0.0025901757 0.003104243 -0.043490384 -0.0019139163
0.021268696 0.009353195 0.022623885 0.025016746 -0.006472363 -0.034727264 -0.02597205 0.041059066
-0.04707498 -0.01123707 0.0119431615 0.03857006 0.04645105 0.020989057 -0.017295174 -0.044949636
-0.019168021 0.01902915 0.030746678 0.02705058 -0.024679143 -0.02730631 0.04567796 0.020148268
-0.026651464 -0.021667715 -0.008674486 0.012069616 -0.034179118
00000000: 6046 b1b6 7b20 c0bc 33f5 0aba dbfa 68bc
00000010: 048d bbbc 0bc2 fdbc 8963 51bd d6ea 343b
00000020: 8d3a b43b 1235 b3ba 0200 493d ce5c 10bc
00000030: 284b 02bd 561b 553a f477 b4bc 18ca c3bc
00000040: be32 5f3c aa56 2dbd f335 bb3c cd99 0b3d
00000050: bd46 bc3b 48f8 2b3d 9d5e 45bd 1619 3bbc
00000060: 38d5 843c a916 0f3d 0301 453c e5a3 b4bc
00000070: 2f3f 823c 85b4 fcbb f6df 053c db01 0abb
00000080: 481e a8bc b6cc 80bc f099 4f3d 8aaa fabb
00000090: 0e2d cabc 70a9 cd3c 1743 ca3a 940b 8c3b
000000a0: 3107 d73b b8c7 203d 3271 163d bf7b 1e3d
000000b0: f0bf 293b 8e70 4b3b f922 32bd 60dc faba
000000c0: b03b ae3c 253e 193c ba55 b93c ebef cc3c
000000d0: 1e16 d4bb 2d3e 0ebd 56c3 d4bc 8d2d 283d
000000e0: b2d1 40bd b01b 38bc 40ad 433c a4fb 1d3d
000000f0: 7543 3e3d 3ef1 ab3c 9cae 8dbc 1c1d 38bd
00000100: 4106 9dbc 05e3 9b3c 75e0 fb3c 2e99 dd3c
00000110: ea2b cabc 7cb1 dfbc d018 3b3d fb0d a53c
00000120: 2c54 dabc 7e80 b1bc 6e1f 0ebc a3bf 453c
00000130: 67ff 0bbd

encoder.0.weight f4 [192, 384]
-0.0051602335 0.011413656 0.0035535002 -0.019265566 0.039716147 -0.019248638 -0.018468669 -0.015910566
-0.04906712 0.039775867 0.020308973 -0.033108927 0.03070189 0.010572905 0.010085629 0.028233135
-0.040837336 0.021879228 0.06099502 -0.04018645 0.020915898 0.012514846 0.039989617 -0.039537244
-0.01371247 -0.027217846 -0.037621047 0.0070895776 0.016205681 0.030098109 -0.05951728 0.006703281
0.036306135 0.0104916375 0.023421753 -0.0028904094 -0.053650163 0.014994387 0.0058559524 0.025165256
0.024394175 -0.008440973 -0.028439282 0.0036678237 0.040298883 -0.039712664 -0.016496398 -0.023545638
-0.0029585261 0.009419557 -0.023982124 0.026698908 0.044998236 -0.009685411 0.025491834 0.017535973
-0.041492365 -0.019357223 -0.04056175 -0.0073398217 -0.010827521 0.013367969 0.005387755 0.041286524
0.04215271 -0.046335507 0.030859714 -0.01160544 0.054316163 -0.010541153 -0.028599415 0.057385307
-0.014145067 -0.054440726 -0.03604686 -0.031757895 -0.0027725354 -0.016283672 0.02133242 -0.0070832116
0.018234605 0.0075075403 -0.040626835 0.019028548 0.023911005 0.008701868 -0.0320754 -0.026366437
0.017149879 -0.04483064 0.03529795 0.021755377 0.03472127 0.022423854 -0.014571671 0.031678025
-0.03182247 0.032025125 0.02397207 -0.020584501 -0.022329424 0.037750363 0.034550864 0.016596623
-0.038421616 0.0035121967 -0.050848562 0.028157474 -0.037670955 0.022615649 0.027441934 -0.029311443
-0.029797642 -0.036627896 0.050989624 0.005715139 0.003775044 0.038313042 0.0051722806 0.0069495025
0.03226449 0.02550671 0.021640623 0.023560386 0.046510745 0.04153167 0.010326386 -0.030341916
-0.02874294 0.026743362 0.029604742 -0.027085323 -0.032920808 0.013318065 0.019413836 -0.03545994
0.03427054 -0.053357452 -0.01934433 -0.024710674 0.01597961 0.022696868 -0.03181278 -0.013654084
-0.031525224 -0.01228728 -0.049512524 -0.0018446608 0.0043333042 -0.040282026 0.009219047 -0.005080186
-0.014192705 -0.052149244 0.01729146 0.0072986395 0.0060937977 0.036890708 -0.027228205 -0.038148507
-0.028520713 -0.041969746 0.026993683 0.030453252 -0.036257986 0.012226563 0.052912563 -0.005164392
-0.014342498 0.010721953 -0.0031446845 0.03581507 0.044710442 -0.023056028 -0.04212697 0.043617625
0.018706748 0.015828703 -0.033011567 0.019457193 -0.037905097 -0.012769196 0.021734 0.001121073
-0.016342891 0.028684312 0.053627104 -0.037683737 -0.0025301185 0.04876075 0.0032464885 -0.013785299
0.0070304726 0.03027443 -0.038467165 -0.02185018 0.025948025 -0.031603426 -0.02964664 -0.05636749
-0.032532174 -0.042282872 0.017185573 0.0017916063 0.03160372 -0.010478127 0.0014143822 -0.040485106
-0.022036154 -0.01773396 0.027779147 0.030056804 0.007228239 0.03220849 -0.014336247 -0.03590488
0.035033114 -0.016055215 0.005412618 -0.05158774 -0.037493493 0.03710304 -0.033031266 -0.016537195
-0.042821694 0.056344613 0.042215295 0.025426026 -0.026960826 0.028138729 0.021397451 -0.039427035
0.021055968 -0.03607805 0.019700365 -0.027008269 -0.022427134 -0.051337007 0.00926917 0.036737174
0.00021465549 0.029713681 -0.03968712 -0.02093215 -0.0021391765 -0.04904333 -0.027745938 -0.010429146
0.047310684 0.0011094705 -0.0013720669 -0.0019565364 0.041411467 0.050545584 -0.02367987 0.040037304
00000000: 2d17 a9bb 5800 3b3c d7e1 683b d2d2 9dbc
00000010: 66ad 223d 52af 9dbc 9b4b 97bc e056 82bc
00000020: 9bfa 48bd 05ec 223d 015f a63c 3a9d 07bd
00000030: 8882 fb3c fa39 2d3c 323e 253c 2d49 e73c
00000040: 0d45 27bd 113c b33c ead5 793d 8c9a 24bd
00000050: d157 ab3c 120b 4d3c 27cc 233d cef1 21bd
00000060: 45aa 60bc f6f7 debc 8718 1abd b04f e83b
00000070: c7c1 843c 4f90 f63c 64c8 73bd 32a7 db3b
00000080: beb5 143d 1ee5 2b3c fade bf3c 066d 3dbb
00000090: 46c0 5bbd 04ab 753c 4ae3 bf3b 5e27 ce3c
000000a0: 4bd6 c73c 024c 0abc 7ff9 e8bc df5f 703b
000000b0: 7110 253d bfa9 22bd 7423 87bc c8e2 c0bc
000000c0: d5e3 41bb 7c54 1a3c 2976 c4bc abb7 da3c
000000d0: 1250 383d 8faf 1ebc 40d4 d03c 9aa7 8f3c
000000e0: e6f3 29bd 0a93 9ebc 1424 26bd e382 f0bb
000000f0: ea65 31bc 5305 5b3c c48b b03b 0f1c 293d
00000100: 52a8 2c3d 4dca 3dbd 83cd fc3c be24 3ebc
00000110: a07a 5e3d cdb4 2cbc 5249 eabc db0c 6b3d
00000120: b6c0 67bc 3dfd 5ebd dfa5 13bd 9114 02bd
00000130: 6db3 35bb 5665 85bc 54c1 ae3c 491a e8bb
00000140: bd60 953c d001 f63b 5368 26bd c2e1 9b3c
00000150: 03e1 c33c 4892 0e3c 7f61 03bd 6dfe d7bc
00000160: e77d 8c3c 55a0 37bd 9594 103d 5538 b23c
00000170: e437 0e3d 3bb2 b73c 05be 6ebc d1c0 013d
00000180: 4758 02bd c72c 033d 1361 c43c d4a0 a8bc
00000190: 32ec b6bc 20a0 1a3d 3585 0d3d a4f5 873c
000001a0: fc5f 1dbd e22c 663b 9546 50bd 81aa e63c
000001b0: dc4c 1abd 7444 b93c e8cd e03c 8d1e f0bc
000001c0: 2f1a f4bc 2207 16bd 7fda 503d 1046 bb3b
000001d0: bb66 773b 23ee 1c3d 3c7c a93b a7b8 e33b
000001e0: c527 043d 73f3 d03c ad47 b13c b601 c13c
000001f0: 0d82 3e3d 1d1d 2a3d 0130 293c 9c8f f8bc
00000200: 5076 ebbc e514 db3c a585 f23c 0ae2 ddbc
00000210: f8d7 06bd 0334 5a3c c409 9f3c 713e 11bd
00000220: 445f 0c3d 588d 5abd 0078 9ebc 0a6e cabc
00000230: ace7 823c c8ee b93c 1e4e 02bd 61b5 5fbc
00000240: 9820 01bd 9650 49bc a5cd 4abd 8cc8 f1ba
00000250: 64fe 8d3b c4fe 24bd 7c0b 173c b077 a6bb
00000260: 8588 68bc 729a 55bd d2a6 8d3c 6d29 ef3b
00000270: 7bae c73b b61a 173d af0d dfbc 9c41 1cbd
00000280: 45a4 e9bc 78e8 2bbd db21 dd3c 1979 f93c
00000290: 4183 14bd ec51 483c d8ba 583d 0f3a a9bb
000002a0: ccfc 6abc 21ab 2f3c 0d17 4ebb d3b2 123d
000002b0: 4c22 373d ffdf bcbc 548d 2cbd 65a8 323d
000002c0: e53e 993c 32ab 813c 2337 07bd b164 9f3c
000002d0: 6042 1bbd e435 51bc 800b b23c f8f0 923a
000002e0: 87e1 85bc 5dfb ea3c 18a8 5b3d 435a 1abd
000002f0: 58d0 25bb 5ab9 473d 0ac3 543b bcdb 61bc
00000300: e15f e63b 1502 f83c bf8f 1dbd 26ff b2bc
00000310: f490 d43c 9872 01bd 83dd f2bc 99e1 66bd
00000320: 7540 05bd ce30 2dbd c2c8 8c3c 55d4 ea3a
00000330: e772 013d 73ac 2bbc cb62 b93a b6d3 25bd
00000340: 2a85 b4bc cf46 91bc 1891 e33c b039 f63c
00000350: ddda ec3b 0ded 033d 94e2 6abc ff10 13bd
00000360: e27e 0f3d 3a86 83bc 555c b13b ab4d 53bd
00000370: c792 19bd 5bf9 173d cb4b 07bd 0379 87bc
00000380: cd65 2fbd 9cc9 663d f2e9 2c3d 3e4a d03c
00000390: f3dc dcbc 3183 e63c b549 af3c 3e7e 21bd
000003a0: 917d ac3c 94c6 13bd a962 a13c 7240 ddbc
000003b0: 1cb9 b7bc c146 52bd b8dd 173c b879 163d
000003c0: 2515 6139 1b6a f33c f68e 22bd e679 abbc
000003d0: 6d31 0cbb a9e1 48bd 734b e3bc 02df 2abc
000003e0: d9c8 413d a76b 913a edd6 b3ba 3c39 00bb
000003f0: 129f 293d e308 4f3d 49fc c1bc 28fe 233d

encoder.0.bias f4 [192]
-0.015680913 0.024407057 -0.011595321 -0.04126715 0.01592877 -0.014754581 -0.009693569 0.017335733
-0.038029853 -0.01534146 -0.02208034 -0.0019359058 -0.044115346 -0.028453838 0.008456852 -0.043048374
0.0032000483 -0.011824923 0.048466604 0.008076722 -0.029491678 -0.024827369 0.01604671 -0.05140956
0.055449136 -0.028094359 -0.044319827 0.01295038 -0.051176425 0.044976886 -0.0021075464 -0.027227351
-0.03697886 0.022551285 0.022311874 0.002967899 -0.057175077 -0.03179484 -0.03164864 0.043986563
-0.014991696 -0.014968362 -0.002183327 0.0021473845 0.0019339686 -0.010211933 0.07540921 0.06016867
-0.019124366 0.02468218 -0.021869589 0.015369295 -0.0422199 -0.041225888 0.014310835 0.0063332194
-0.03666598 -0.028056035 -0.041315198 0.027779775 -0.03838041 -0.022914872 -0.020583274 0.026542705
-0.0075544384 -0.016501255 0.03893816 0.053965267 -0.052918445 -0.019211918 -0.054301843 0.006788339
-0.021807471 -0.036586046 -0.04131168 -0.042229872 -0.000665386 -0.025472308 -0.051660385 -0.0015380705
-0.0061965985 0.0066014472 -0.048996963 -0.031064508 -0.033205364 -0.031546798 0.016360579 -0.047430016
0.025244666 -0.018825633 0.03073829 0.0155733945 0.06372429 -0.012245244 -0.017747613 -4.733033e-05
0.01771904 -0.014701169 -0.0096348 0.008743133 0.02453351 0.05781127 0.05674941 0.020924296
0.012663629 0.012474704 0.031558637 -0.012494843 -0.0067355074 -0.027055856 -0.0017281186 -0.03334728
-0.05754279 -0.012348892 0.01869753 -0.019601768 0.052295186 -0.010459803 -0.052430857 0.05522401
0.034994557 0.050190557 0.021318417 0.014792364 0.005327421 -0.028395958 -0.03462908 0.06291866
-0.013728312 -0.04253404 -0.03381627 0.020546967 -0.052166708 0.01793948 -0.0032270425 0.052120246
0.05647375 -0.025723621 -0.037419453 -0.0004487596 0.060535457 0.025999352 -0.021360978 -0.045618687
0.019691221 -0.03103992 -0.01752467 0.03434928 0.020301402 -0.009443564 -0.0092861205 -0.05292927
-0.043743815 0.010231301 0.0011188817 -0.027459748 -0.007286403 -0.038302004 0.08884213 -0.010488476
0.018202635 0.029763393 -0.034761075 -0.057102673 0.00091506704 -0.0031917766 -0.03307831 0.05090714
0.028368719 0.0314891 0.012672975 0.027500805 -0.01118029 0.02478358 0.00043314107 0.015126917
0.041829016 0.008750117 0.031457104 -0.029337978 -0.051834386 -0.04036457 0.030092677 -0.002447294
-0.04765638 0.0056224437 -0.043143395 -0.05130807 0.0025274996 -0.014100196 0.021339785 -0.017658921
00000000: 4275 80bc 4ff1 c73c 4dfa 3dbc be07 29bd
00000010: 0d7d 823c 33bd 71bc c6d1 1ebc ab03 8e3c
00000020: 31c5 1bbd bf5a 7bbc d4e1 b4bc 38be fdba
00000030: 4bb2 34bd 0618 e9bc 9c8e 0a3c 7e53 30bd
00000040: e7b7 513b 52bd 41bc eb84 463d 3a54 043c
00000050: 8898 f1bc c462 cbbc 6474 833c d592 52bd
00000060: a21e 633d 2426 e6bc b588 35bd d52d 543c
00000070: 5f9e 51bd af39 383d c31e 0abb e50b dfbc
00000080: 2577 17bd 79bd b83c 64c7 b63c 1581 423b
00000090: 6a30 6abd 4e3b 02bd 01a2 01bd 412b 343d
000000a0: bb9f 75bc dc3d 75bc 2616 0fbb 22bb 0c3b
000000b0: 387d fd3a f44f 27bc 2570 9a3d 6c73 763d
000000c0: b4aa 9cbc 4832 ca3c da27 b3bc 7fcf 7b3c
000000d0: c6ee 2cbd 7adc 28bd fe77 6a3c e586 cf3b
000000e0: 112f 16bd c5d5 e5bc 203a 29bd 6992 e33c
000000f0: c734 1dbd f8b7 bbbc 419e a8bc 1670 d93c
00000100: 398b f7bb a42d 87bc 9f7d 1f3d af0a 5d3d
00000110: 03c1 58bd 5062 9dbc 9c6b 5ebd b770 de3b
00000120: 95a5 b2bc 40db 15bd 7036 29bd 3bf9 2cbd
00000130: 4c6d 2eba 4dab d0bc d799 53bd 1599 c9ba
00000140: d60c cbbb f450 d83b 0ab1 48bd ff7a febc
00000150: 5902 08bd 3737 01bd 9f06 863c fa45 42bd
00000160: e7cd ce3c 3738 9abc dece fb3c 8d27 7f3c
00000170: e181 823d 47a0 48bc 7163 91bc 8e84 46b8
00000180: 8527 913c 2cdd 70bc 48db 1dbc 5c3f 0f3c
00000190: 80fa c83c 83cb 6c3d 1272 683d 6e69 ab3c
000001a0: 1c7b 4f3c b362 4c3c a143 013d 2cb7 4cbc
000001b0: 88b5 dcbb 3ea4 ddbc 0a82 e2ba 2897 08bd
000001c0: fdb1 6bbd 0253 4abc 902b 993c e393 a0bc
000001d0: 7a33 563d 985f 2bbc bdc1 56bd 9232 623d
000001e0: 7456 0f3d 9d94 4d3d f6a3 ae3c ac5b 723c
000001f0: a591 ae3b a49e e8bc 39d7 0dbd 80db 803d
00000200: b7ec 60bc 2c38 2ebd ee82 0abd 1d52 a83c
00000210: c2ac 55bd d1f5 923c ca7c 53bb 0a7c 553d
00000220: 0551 673d 58ba d2bc 2445 19bd 7e47 ebb9
00000230: 07f4 773d 98fc d43c 38fd aebc a9da 3abd
00000240: 7c4f a13c 6e47 febc e68f 8fbc d5b1 0c3d
00000250: 204f a63c 2eb9 1abc d024 18bc 5dcc 58bd
00000260: b72c 33bd 30a1 273c 71a7 923a 44f3 e0bc
00000270: c7c2 eebb 90e2 1cbd ddf2 b53d dbd7 2bbc
00000280: b11d 953c 5cd2 f33c a161 0ebd 7ee4 69bd
00000290: 1ce1 6f3a 202d 51bb 1f7d 07bd 0184 503d
000002a0: 8465 e83c b7fa 003d 4fa2 4f3c 5e49 e13c
000002b0: 892d 37bc ef06 cb3c 3617 e339 e3d6 773c
000002c0: e754 2b3d a75c 0f3c 2ad9 003d 3356 f0bc
000002d0: 4b50 54bd 5255 25bd eb84 f63c c862 20bb
000002e0: 5633 43bd 7a3c b83b 21b7 30bd 6928 52bd
000002f0: 68a4 253b 8204 67bc c6d0 ae3c 71a9 90bc

decoder.0.weight f4 [192, 77]
-0.0037672115 0.0041410318 -0.00173489 0.0016538834 0.006922919 -0.0043751406 0.0042018425 0.00079049513
0.0032730051 -0.00072278647 -0.0038943717 0.0018494149 -0.0009950207 -0.010438996 -0.0010919685 -0.007664343
-0.0039859447 0.008050229 0.003246589 -0.002147317 -0.0011774716 -0.009872275 -0.0017771085 0.008421504
0.0077501275 -0.0013271202 -0.0019156889 0.005295876 -0.0066376957 0.00010323253 0.0050321715 -0.0034417312
-0.0068657133 0.005435123 0.0027789068 0.0013258918 0.0011936843 0.0038681992 -0.0005613925 -0.0013815077
0.0050077946 0.0058245794 0.0016261335 0.0067029316 0.00037649818 0.009515842 -0.006879583 0.00392283
0.0018904667 0.008322497 -0.0030401507 0.0010603386 0.006959584 0.0023897926 -0.0026400376 0.0030484896
0.00028516274 -0.0021748065 0.0025530402 0.00068967923 0.0006297291 0.0015425044 0.0018432315 0.0030663298
-0.0027235148 -0.007423191 -0.0010128543 -0.00410321 -0.0040761237 -0.006723405 -0.0047305347 0.0022299562
0.004909405 0.0022158339 -0.004188443 0.0022222488 0.0031959133 0.009168439 0.004865683 -0.0007890586
-0.013320061 0.005963856 -0.00076785043 -0.004727134 -0.008477005 -0.011844135 -0.0041752993 -0.0027456428
0.005352163 -0.011865227 0.0016637772 -0.005176002 0.011499875 -0.0033007886 -0.0023631654 0.016013024
0.010853251 -0.008038796 0.0099273315 0.006902192 -0.0007076058 0.0095950095 0.0011012023 -0.007425207
0.0015355645 0.0075853663 0.001002846 0.014326857 0.00998349 -0.00063928385 -0.0027659542 -0.016377935
0.014061843 0.0067867613 0.001975448 0.0022186988 -0.0035761397 -0.009380448 0.0014974064 -0.007370708
0.005502254 -0.003909797 0.0044850805 0.0022113638 0.008940999 -0.005246025 0.003180483 0.0032791633
0.00044569324 0.0079627605 -0.0020087434 -0.0020840946 -0.0016209711 -7.381489e-05 -0.0048384015 -0.0033390538
0.00383991 0.007471717 0.001290287 -0.0013431931 -0.0026364436 -0.0014444928 0.0055793654 -0.010891504
0.004119864 0.0015683527 -0.0050465544 0.011279057 -0.005143146 0.0011698877 -0.0073595555 0.006429582
0.0029310493 -0.0023554054 -0.0175011 -0.008059116 0.021663964 -0.006649295 0.023985788 0.005696
-0.02176974 0.019077692 0.02794467 -0.01932642 -0.021059563 0.01340321 -0.015451742 -0.021368036
0.009300044 0.017473577 -0.0048012524 0.0074594854 -0.003700066 -0.017845834 0.009435294 -0.0042211465
-0.0037903476 -0.0031826943 0.011479315 -0.003777351 -0.0072077727 -0.01702791 0.009140855 0.013350228
0.008857424 -0.016513854 -0.0046906387 0.008995817 0.01288784 -0.003151184 0.004966304 -0.0041648718
0.003095919 -0.011420761 0.023574814 0.018668555 0.0038734984 -0.024162399 0.000866514 0.0025869412
0.012014981 0.019321183 -0.021584988 0.0027492177 -0.005283569 0.012526197 0.00085035566 -0.018630082
-0.01805891 0.003026043 0.010190634 -0.010272648 -0.0036992314 -0.029445859 0.0030908333 0.024263993
0.010781755 -0.009252735 0.001428688 -0.00055868615 -0.012132287 -0.014464781 0.0073816134 -0.0035796848
0.019198323 0.024967294 0.014034623 0.028034285 -0.016245048 0.008972408 0.00059172476 -0.0073602223
-0.013072123 -0.0023829525 -0.015079431 0.01522001 -0.0069857 0.0005994575 0.008792958 0.008059115
-0.0004307653 0.0021717888 -0.011952923 0.0020915002 0.006860196 -0.0048079593 -0.002949185 0.009564523
0.005652864 0.0049218754 0.010721251 -0.002431861 -0.00344752 -0.006686754 0.013421279 -0.0004848638
00000000: 52e3 76bb 7eb1 873b 4065 e3ba 1ec7 d83a
00000010: a7d9 e23b 575d 8fbb 9caf 893b 3b39 4f3a
00000020: ea7f 563b 6179 3dba b738 7fbb 1168 f23a
00000030: 5b6b 82ba 5308 2bbc 6220 8fba 2b25 fbbb
00000040: 879c 82bb 1ce5 033c bac4 543b 00ba 0cbb
00000050: 6455 9aba 53bf 21bc deed e8ba 59fa 093c
00000060: c8f4 fd3b c4f2 adba da17 fbba 0789 ad3b
00000070: 0781 d9bb 8b7e d838 eae4 a43b ab8e 61bb
00000080: c7f9 e0bb 1e19 b23b 521e 363b 8cc9 ad3a
00000090: 6675 9c3a 9d81 7d3b 6a2a 13ba b513 b5ba
000000a0: 6d18 a43b 1ddc be3b fc23 d53a 44a4 db3b
000000b0: bb64 c539 56e8 1b3c 206e e1bb 158b 803b
000000c0: 89c9 f73a 155b 083c 443d 47bb 0ffb 8a3a
000000d0: 390d e43b 119e 1c3b 7b04 2dbb 2bc9 473b
000000e0: e581 9539 3387 0ebb e850 273b 97cb 343a
000000f0: 6814 253a dc2d ca3a 9698 f13a 7af4 483b
00000100: ff7c 32bb 3d3e f3bb c0c1 84ba 3874 86bb
00000110: 0191 85bb 0250 dcbb 9a02 9bbb 7524 123b
00000120: 13df a03b 8637 113b 353f 89bb 26a3 113b
00000130: 8772 513b 3837 163c 4f70 9f3b d4d8 4eba
00000140: 633c 5abc 736c c33b 9249 49ba 13e6 9abb
00000150: 23e3 0abc e70d 42bc f3d0 88bb 3ef0 33bb
00000160: 3361 af3b 5e66 42bc 1913 da3a 749b a9bb
00000170: f969 3c3c 0b52 58bb 56df 1abb bf2d 833c
00000180: d6d1 313c 27b5 03bc 3fa6 223c c82b e23b
00000190: 9f7e 39ba 6334 1d3c 3856 903a 274f f3bb
000001a0: ff44 c93a aa8e f83b ee71 833a 32bb 6a3c
000001b0: cb91 233c 9d95 27ba 0345 35bb 052b 86bc
000001c0: a563 663c 7b63 de3b 8576 013b 9767 113b
000001d0: ab5d 6abb 73b0 19bc 9f44 c43a fb85 f1bb
000001e0: 404c b43b c11d 80bb 95f7 923b 87ec 103b
000001f0: 457d 123c d9e6 abbb a66f 503b 3be7 563b
00000200: efab e939 3d76 023c 1fa5 03bb 4e95 08bb
00000210: c476 d4ba 11cd 9ab8 748b 9ebb 07d4 5abb
00000220: 00a7 7b3b 4ed5 f43b d91e a93a 150e b0ba
00000230: 2fc8 2cbb 2355 bdba 1cd3 b63b 4772 32bc
00000240: edff 863b 2f91 cd3a 915d a5bb cbcb 383c
00000250: d687 a8bb eb56 993a 6d28 f1bb 3eaf d23b
00000260: d916 403b 255d 1abb 785e 8fbc 620a 04bc
00000270: a078 b13c 54e2 d9bb d87d c43c 83a5 ba3b
00000280: 7456 b2bc d248 9c3c 38ec e43c 7152 9ebc
00000290: 1b85 acbc 2399 5b3c 4e29 7dbc 050c afbc
000002a0: 365f 183c bf24 8f3c d353 9dbb b36e f43b
000002b0: ce7c 72bb 6d31 92bc 7e96 1a3c 8b51 8abb
000002c0: 7b67 78bb c094 50bb bd13 3c3c 6f8d 77bb
000002d0: 2e2f ecbb 1e7e 8bbc 86c3 153c eaba 5a3c
000002e0: bb1e 113c 1048 87bc eeb3 99bb 3163 133c
000002f0: 8527 533c 1884 4ebb 61bc a23b 7a79 88bb
00000300: e7e4 4a3b 251e 3bbc f81f c13c ccee 983c
00000310: 85da 7d3b 39f0 c5bc c526 633a ac89 293b
00000320: 7cda 443c 7547 9e3c 00d3 b0bc 382c 343b
00000330: ca21 adbb ae3a 4d3c 67ea 5e3a 1d9e 98bc
00000340: 47f0 93bc 9450 463b 9ef6 263c 9c4e 28bc
00000350: ce6e 72bb 7138 f1bc 948f 4a3b 48c5 c63c
00000360: f5a5 303c c998 17bc d042 bb3a cb74 12ba
00000370: 80c6 46bc b0fd 6cbc 76e1 f13b 2599 6abb
00000380: cd45 9d3c 3688 cc3c 7af1 653c 28a8 e53c
00000390: 5614 85bc 0201 133c fa1d 1b3a 052e f1bb
000003a0: 752c 56bc 4f2b 1cbb b80f 77bc 595d 793c
000003b0: 4de8 e4bb e924 1d3a 5710 103c 610a 043c
000003c0: 57d8 e1b9 9254 0e3b 31d6 43bc 8d11 093b
000003d0: 7fcb e03b 168c 9dbb 1d47 41bb 84b4 1c3c
000003e0: a93b b93b af47 a13b 30a8 2f3c db5f 1fbb
000003f0: caef 61bb 8f1c dbbb ede4 5b3c 5135 feb9

decoder.0.bias f4 [192]
-0.02081008 -0.09028542 -0.104798414 -0.1501313 0.007032839 -0.12187912 -0.15524344 0.018909061
0.045299113 -0.111964576 -0.10095499 -0.16243212 -0.03252233 -0.18820673 -0.16989258 -0.108280994
-0.047358073 -0.18433075 0.08653183 -0.11911022 -0.09337019 -0.04471237 -0.09177031 -0.13721867
0.046743974 -0.03908284 -0.096269906 0.027399216 0.017854374 0.05130397 -0.03916342 -0.031441342
0.027892934 0.028768776 -0.123965 -0.08968302 0.06255883 -0.091573104 0.036895294 -0.13108669
-0.044245508 -0.1932605 0.08978897 -0.04635086 -0.11363384 -0.13091175 -0.0856216 0.04647003
-0.07464633 -0.13494349 -0.12232386 -0.009982173 -0.05544653 -0.08160655 0.01941161 -0.12935236
-0.0054307706 -0.09484171 -0.18450998 -0.002610901 0.058929008 0.037184924 -0.08059661 0.07079055
0.038955282 -0.005204542 -0.0006370575 -0.00034393667 0.049760673 -0.16055954 -0.06363954 0.03635585
-0.15946336 -0.07136342 -0.11635697 -0.025345322 -0.017816262 -0.14551196 -0.08899269 -0.050580423
-0.17869231 -0.16524537 -0.15033032 -0.06580484 -0.11892997 -0.012732952 -0.06915036 -0.053626653
-0.1099159 -0.08692279 0.054135963 -0.069746375 0.09287092 -0.17426918 -0.13395497 -0.12121255
-0.177146 -0.15881374 -0.04946375 -0.014923084 -0.058617465 0.087151654 -0.13329211 -0.051134564
0.058748063 -0.12641378 -0.1786509 -0.118509494 0.07518537 -0.015323797 -0.16219121 -0.16178086
-0.10769972 -0.1907102 -0.106297806 -0.06914419 0.00882662 -0.16740467 0.029020412 -0.043875914
-0.021652186 -0.16208203 -0.0794693 0.016855488 -0.1907006 0.04080105 -0.1381596 -0.18833876
-0.10631372 -0.11176014 -0.003800985 -0.156564 -0.12815261 -0.18242356 0.04633411 -0.120021544
-0.095914 -0.07224937 0.0671799 -0.006011299 -0.09641526 0.030937748 -0.11951741 -0.03963916
-0.1502151 -0.10478512 -0.15855142 -0.0915009 -0.12511055 0.04292543 0.024205077 0.014338002
0.047578096 -0.13846074 -0.06385467 0.02865911 -0.16246049 -0.1146504 -0.11524907 0.030689104
-0.025124177 -0.09616333 -0.11751285 -0.029546686 -0.11405871 -0.0040070815 0.030776763 -0.14134268
-0.025310496 -0.033635046 0.051684976 -0.13560434 -0.034267336 -0.10440566 0.08154603 -0.08859982
-0.0065121753 0.01725931 -0.12707406 -0.13815606 -0.06500967 0.03239924 -0.039871465 0.008457028
-0.07872412 -0.102031216 0.008378116 0.020627016 -0.04063871 0.07589461 -0.0016818469 -0.042916156
00000000: e779 aabc 90e7 b8bd 8da0 d6bd 05bc 19be
00000010: bb73 e63b c39b f9bd 23f8 1ebe 2de7 9a3c
00000020: 908b 393d af4d e5bd 7dc1 cebd 9b54 26be
00000030: 2236 05bd 44b9 40be 52f8 2dbe 6dc2 ddbd
00000040: 8afa 41bd 33c1 3cbe 9a37 b13d 0ff0 f3bd
00000050: df38 bfbd 5124 37bd 13f2 bbbd 0d83 0cbe
00000060: 9c76 3f3d 5415 20bd 2829 c5bd 5274 e03c
00000070: 5643 923c 1d24 523d d369 20bd a3c8 00bd
00000080: b97f e43c 7fac eb3c 5de1 fdbd bbab b7bd
00000090: d81e 803d ae8a bbbd 851f 173d 973b 06be
000000a0: c73a 35bd 15e6 45be 48e3 b73d 66da 3dbd
000000b0: dcb8 e8bd bb0d 06be 615a afbd 5c57 3e3d
000000c0: 2de0 98bd a02e 0abe ef84 fabd 458c 23bc
000000d0: e71b 63bd 5621 a7bd 1905 9f3c f274 04be
000000e0: 9bf4 b1bb 5f3c c2bd 2ff0 3cbe a61b 2bbb
000000f0: 8b5f 713d 384f 183d d60f a5bd a3fa 903d
00000100: 938f 1f3d dd8a aabb 3500 27ba 6652 b4b9
00000110: d9d1 4b3d b869 24be 7255 82bd dfe9 143d
00000120: 5d4a 23be fc26 92bd 904c eebd fea0 cfbc
00000130: 69f3 91bc 1601 15be cd41 b6bd 6b2d 4fbd
00000140: 1efb 36be 1536 29be 31f0 19be b0c4 86bd
00000150: 8e91 f3bd df9d 50bc b49e 8dbd 9fa7 5bbd
00000160: 961b e1bd 9304 b2bd acbd 5d3d 30d7 8ebd
00000170: 1c33 be3d 9f73 32be 7e2b 09be 493e f8bd
00000180: c365 35be 12a0 22be 809a 4abd f37f 74bc
00000190: de18 70bd 917c b23d ba7d 08be 7a72 51bd
000001a0: cfa1 703d 9d72 01be 43f0 36be 1bb5 f2bd
000001b0: cafa 993d aa10 7bbc 7415 26be e2a9 25be
000001c0: ac91 dcbd 8949 43be aab2 d9bd 789b 8dbd
000001d0: 879d 103c 216c 2bbe 37bc ed3c 3bb7 33bd
000001e0: ed5f b1bc d5f8 25be cdc0 a2bd 8514 8a3c
000001f0: 0547 43be 001f 273d b679 0dbe e0db 40be
00000200: 02bb d9bd 80e2 e4bd f219 79bb 5052 20be
00000210: 703a 03be 3ecd 3abe d6c8 3d3d dbcd f5bd
00000220: 8f6e c4bd 7af7 93bd 9e95 893d 6efa c4bb
00000230: 5d75 c5bd 2971 fd3c 8bc5 f4bd ac5c 22bd
00000240: fdd1 19be 9599 d6bd 4e5b 22be d364 bbbd
00000250: fb1c 00be 93d2 2f3d ba49 c63c f0e9 6a3c
00000260: 40e1 423d a7c8 0dbe 3dc6 82bd 83c6 ea3c
00000270: 0b5c 26be d4cd eabd b407 ecbd b767 fb3c
00000280: 38d1 cdbc 48f1 c4bd 94aa f0bd e40b f2bc
00000290: 9d97 e9bd d64d 83bb 8d1f fc3c 23bc 10be
000002a0: f557 cfbc e7c4 09bd a0b3 533d dddb 0abe
000002b0: e85b 0cbd a2d2 d5bd 9b01 a73d d373 b5bd
000002c0: 1664 d5bb 6663 8d3c b41f 02be c878 0dbe
000002d0: ca23 85bd 11b5 043d 4350 23bd 598f 0a3c
000002e0: 1d3a a1bd bef5 d0bd 5e44 093c fdf9 a83c
000002f0: c774 26bd a26e 9b3d 6b71 dcba dac8 2fbd

decoder.2.weight f4 [384, 192]
0.0082363235 -0.018047415 -0.0075653465 -0.0059978366 -0.027855495 -0.0018249631 -0.007757847 -0.0021398757
0.009226151 0.0060217828 -0.00013248676 -0.014345731 0.011623093 -0.0074508255 -0.022232978 0.006846396
0.02260127 0.008435818 -0.014985873 0.02107812 0.002339218 0.020219985 -0.0018536084 0.027276605
0.015653059 -0.019058133 0.00518654 0.022942398 -0.010095868 0.0002925366 -0.014745806 0.009409719
-0.006089735 -0.00833405 0.0074418155 -0.029182432 -0.011372567 -0.02005121 0.004186436 0.021009529
0.022042485 -0.02386533 -0.011952264 0.02137704 0.013310884 -0.013778794 0.010576286 -0.008259868
-5.6674748e-05 -0.0031046267 -0.015318065 0.023418985 -0.008740806 -0.024748363 0.0017570833 0.016338646
-0.027654981 0.023543777 -0.033238735 0.0048486404 -0.023102568 -0.00287531 0.02402001 0.007709014
-0.018891186 -0.006534449 0.00440079 0.036010787 -0.021264315 -0.003395586 0.02356136 0.007645932
0.050033335 -0.017336456 0.041652713 -0.007851299 0.016614323 -0.022604574 0.001928338 -0.033312395
0.011406161 0.008320639 0.017903851 0.013727367 0.0013339303 0.0034368888 0.008216248 -0.018048292
0.026524536 0.021304982 -0.0007720446 -0.006619773 -0.017663788 -0.025710655 -0.005260952 0.022545125
-0.024896815 0.002751351 0.014407854 -0.0056344564 0.0019637384 -0.0019961295 -0.0032317287 -0.022588702
-0.0025385027 0.013849221 0.011917954 0.01290439 0.008290457 -0.000911267 0.0035099543 -0.0029803435
0.011803684 -0.025329277 -0.0018076228 0.006834282 -0.026447233 0.004563323 0.00514316 0.00017334244
0.013167344 0.016771417 0.0087740095 -0.016045716 0.009938015 -0.0014610735 -0.011794082 -0.012626376
0.0029561673 0.0008804581 -0.0055181053 -0.0026463226 0.004823146 -0.037493557 0.029158937 0.031472947
-0.016639557 0.046398375 -0.00088732975 0.0005961223 -0.0030825043 -0.0061161797 -0.026965002 -0.00049094245
0.0071643237 -0.015216277 -0.030175053 -0.007877291 -0.030019265 0.012614561 -0.016537733 0.011225059
-0.026938122 -0.030947523 -0.011537372 0.0066567445 -0.015191642 -0.03099175 0.0050244746 -0.022237688
-0.003392754 0.008761418 -0.00017794325 0.002546649 0.018262358 0.021405743 -0.0016538221 -0.004446761
-0.025912331 -0.015404035 -0.015851947 0.0370152 -0.020257622 0.031130742 0.011696394 -0.030956289
-0.013984286 0.01480429 0.009497452 -0.013054577 0.016095825 0.018714296 -0.019803792 0.008087228
-0.029242886 0.00875822 -0.018692879 -0.011022197 0.02565396 0.005059303 -0.0010881359 0.018917477
-0.007405311 0.0032628353 0.012952973 0.00039262912 -0.016626986 0.0038735797 0.0090143 -0.005100487
0.0073689125 0.0036639955 0.007971981 0.028517984 -0.007153819 0.003986194 -0.011529442 0.0027818074
-0.0068096207 0.0012581373 0.0024037692 -0.011846401 -0.009427243 0.00061784737 -0.003270113 0.02904163
0.013860214 -0.0030918634 -0.005495744 0.011537901 0.0009748739 -0.0038153687 0.005036579 -0.004020359
-0.012722647 0.008560785 -0.026896562 0.0042026597 0.0070812576 -0.0023954087 -0.0064547523 0.013363516
-0.0037043262 -0.0015431661 0.008178858 0.011933182 -0.0018557174 0.011186553 0.012215486 0.0017669542
-0.0102217235 0.003747178 -0.01336242 -0.004041277 0.025978608 -0.009128499 0.0053797397 0.016702367
-0.017559942 -0.0070998124 0.018669473 0.006244774 0.007750395 -0.0115593895 0.001525233 -0.017611349
00000000: a5f1 063c 2cd8 93bc bae6 f7bb 8089 c4bb
00000010: 3531 e4bc 9a33 efba 8a35 febb 283d 0cbb
00000020: 4829 173c 6052 c53b 25ec 0ab9 5b0a 6bbc
00000030: c96e 3e3c 0e26 f4bb ef21 b6bc bb57 e03b
00000040: 4c26 b93c 6336 0a3c 4f87 75bc 06ac ac3c
00000050: 914d 193b 62a4 a53c c7f4 f2ba 3073 df3c
00000060: d83a 803c cd1f 9cbc daf3 a93b b2f1 bb3c
00000070: 2469 25bc 995f 9939 6598 71bc 392b 1a3c
00000080: 668c c7bb 8a8b 08bc 79da f33b ff0f efbc
00000090: 0154 3abc 6f42 a4bc 5f2e 893b 2d1c ac3c
000000a0: 7192 b43c 3981 c3bc 6ed3 43bc e71e af3c
000000b0: e515 5a3c 73c0 61bc 2948 2d3c 6654 07bc
000000c0: 0cb6 6db8 fe76 4bbb 9ff8 7abc 2cd9 bf3c
000000d0: 9935 0fbc 14bd cabc ef4d e63a a0d8 853c
000000e0: b38c e2bc e1de c03c 5725 08bd 58e1 9e3b
000000f0: 9941 bdbc b26f 3cbb 9dc5 c43c e69b fc3b
00000100: b0c1 9abc ee1e d6bb 8134 903b 0c80 133d
00000110: 8032 aebc 7b88 5ebb c103 c13c ba8a fa3b
00000120: c1ef 4c3d 2f05 8ebc 099c 2a3d bca2 00bc
00000130: c31a 883c 3a2d b9bc 49c0 fc3a 9472 08bd
00000140: e8e0 3a3c 4a53 083c 19ab 923c c0e8 603c
00000150: 46d7 ae3a 6d3d 613b 719d 063c 03da 93bc
00000160: fc49 d93c c987 ae3c 0963 4aba aeea d8bb
00000170: a6b3 90bc 279f d2bc 1064 acbb 8eb0 b83c
00000180: 68f4 cbbc 0350 343b eb0e 6c3c 3fa1 b8bb
00000190: 10b2 003b 7fd1 02bb 69cb 53bb f10b b9bc
000001a0: 025d 26bb d8e7 623c 8643 433c ef6c 533c
000001b0: b2d4 073c 18e2 6eba 4307 663b de51 43bb
000001c0: 3d64 413c 587f cfbc c2ed ecba 1df2 df3b
000001d0: dea7 d8bc ee87 953b f487 a83b 42c3 3539
000001e0: d8bb 573c 3664 893c ddc0 0f3c 4e72 83bc
000001f0: 0ed3 223c 7e81 bfba f73b 41bc dcde 4ebc
00000200: 42bc 413b 8bce 663a 39d1 b4bb ed6d 2dbb
00000210: 7b0b 9e3b d892 19bd b9de ee3c c7e9 003d
00000220: ae4f 88bc 390c 3e3d b19b 68ba 1745 1c3a
00000230: d703 4abb 3c6a c8bb b5e5 dcbc 97b2 00ba
00000240: b4c2 ea3b b14d 79bc ac31 f7bc c10f 01bc
00000250: f6ea f5bc 4ead 4e3c 247a 87bc 4fe9 373c
00000260: 56ad dcbc a985 fdbc 3f07 3dbc d220 da3b
00000270: 5de6 78bc 69e2 fdbc 59a4 a43b d02b b6bc
00000280: f758 5ebb 0d8c 0f3c 4796 3ab9 aee5 263b
00000290: f19a 953c 195b af3c 10c5 d8ba 23b6 91bb
000002a0: 1946 d4bc 3561 7cbc f1db 81bc 409d 173d
000002b0: 50f3 a5bc e605 ff3c 3ba2 3f3c 0b98 fdbc
000002c0: 591e 65bc b18d 723c 339b 1b3c dde2 55bc
000002d0: 64db 833c b94e 993c 903b a2bc 4b80 043c
000002e0: c78e efbc a37e 0f3c cf21 99bc 7296 34bc
000002f0: 4128 d23c 82c8 a53b c89f 8eba d3f8 9a3c
00000300: 40a8 f2bb 4bd5 553b b538 543c cad9 cd39
00000310: 5135 88bc e2db 7d3b b7b0 133c fc21 a7bb
00000320: eb76 f13b a51f 703b e99c 023c 8c9e e93c
00000330: 956a eabb 9e9e 823b fce5 3cbc fc4e 363b
00000340: 3d23 dfbb 15e8 a43a 8e88 1d3b 6817 42bc
00000350: b974 1abc 09f7 213a 644f 56bb b6e8 ed3c
00000360: f315 633c dca0 4abb a415 b4bb 7709 3d3c
00000370: ae8e 7f3a 440b 7abb e309 a53b 37bd 83bb
00000380: a672 50bc 8942 0c3c 2e56 dcbc 77b6 893b
00000390: e509 e83b 4afc 1cbb 6382 d3bb a6f2 5a3c
000003a0: 48c4 72bb 1044 caba 9e00 063c 6583 433c
000003b0: 8b3b f3ba ce47 373c 7623 483c 2599 e73a
000003c0: 0479 27bc 3793 753b 0dee 5abc b06c 84bb
000003d0: 17d1 d43c b38f 15bc 8748 b03b 67d3 883c
000003e0: ded9 8fbc 8ba5 e8bb b9f0 983c f6a0 cc3b
000003f0: 07f7 fd3b 9863 3dbc 54ea c73a ad45 90bc
